Path_SAC_actor_F1.pth (torch, 833053 bytes, 24 tensors)

in_to_y1.weight f4 [256, 7]
00000000: 54b2 2f3e 902a 3cbb a4cf 063e 9fd6 07bd
00000010: 9d26 1dbe 702f 0abe 433c 03bc 1ee7 2fbd
00000020: 4e2f e33d 20a1 b83d 0968 373d 4366 a4bd
00000030: f1ae df3d 7c29 de3d c899 bebf ac52 5bbe
00000040: 5e6a 203f e0f1 25be 04be 3dc0 e731 c83e
00000050: 07cb 16bf fde4 393c 0a2f c2bd fe3b 353e
00000060: b7b5 52bd da9c fe3c 40b5 a23d 77e2 45bd
00000070: a556 70bf 855f 843f 7231 13be aa4c 383d
00000080: bd42 1abf fa7e 17bf 370d 2dbf f0ea 6dbe
00000090: e683 173f 09fa 2bbd 5991 20c0 2957 0cbf
000000a0: f0e2 08bf 33c4 d5bd ac7f 253e 37ab 5abd
000000b0: 3db2 8cbd fb1a 1bbe 0bf8 a73c a7ab b4bd
000000c0: 04bc b03d fbc9 8139 39ec 40be 7a82 9dbd
000000d0: da4a 3cbd 088a 5abe 4ba7 90bd 97a5 a43d
000000e0: bebc 5fbf 109c e63e 0e35 36bf 2aae d0be
000000f0: 9124 c53f 7db7 ca3d fe2f 00bf 9116 01bc
00000100: 706b a5bd 7396 383e 6493 83bd b5fb f63a
00000110: f0c9 d1bd b490 00be 359c c0bd 3a2e 04be
00000120: cdb5 f63c c174 5dbc dfa9 493d 2025 bcbd
00000130: 7fbc 31be 6018 893d 9155 0c3d 242b b33c
00000140: d012 4dbe 648b 323c e9f2 17be 75dd e9bd
00000150: f084 653d 690a a7bc 9250 ea3d abf7 07be
00000160: 237e cc3c 647a 22be 4894 54bd a54f 973f
00000170: 44b0 913e 0a3a 08bf fe00 d83e 5e6d 03c0
00000180: bf35 d0bd bd7a 053f 308c d33d df8c babd
00000190: ba1d eebc 8665 193d 5d0e 9cbd 8d44 0fbe
000001a0: afcb a63d ccec c93d 393c 25be 4a13 f2ba
000001b0: 618d acbd 079d 35be d578 a0bd 52f3 e0bd
000001c0: 76bf a1bd 87df 9fbe 5dde 923d 4f03 52bd
000001d0: 66ad 8bbd 75d6 053e d319 813d fd6f f63d
000001e0: 5f95 463e b594 6abe 2871 c5b9 6b60 80bd
000001f0: 1fbd 1cbe 706f b63c 2cf3 50be 208c f3bc
00000200: 83bf febd 2ad5 8bbd 5613 b8bd d765 c4bd
00000210: d752 c63a cb5e 24be 4222 e5bc cb03 3bbe
00000220: d2ef 54be 1be2 9fbc 43ef 243e bab2 723d
00000230: aa5e 353c 6a32 0dbe 8ffb 82be 1262 ddb8
00000240: fd6f 50bc 81f8 b1bd 1d52 d2bd 428e 65bc
00000250: 11e9 6dbe 4819 c63d fe26 333d 0063 ae3d
00000260: 6992 a2bb 1744 0f3d 4449 5d3f 1e49 81bf
00000270: 3f33 e13e d86c bcbf 5ee7 1b3e 0dcd 0b3d
00000280: cc75 7d3e e6c7 0fbf b206 6b3d 6067 abbe
00000290: 231f ccb9 e4ad adbe f1d2 40bf e9e5 f43d
000002a0: 0054 fcbc 6661 433d 6dad 8e3e 0477 98be
000002b0: cfad 1d3f bff1 84bf 84a1 88be 7073 143d
000002c0: a1e7 b83c 1729 163d e752 d83c ecb8 973d
000002d0: 4508 16bd 1fc3 6bbc b8a7 8d3d a3d5 2cbb
000002e0: dc7f 2ebe 3521 4dbc ed85 93bd 3a2a 9c3d
000002f0: 3dca 513e f6f2 5c3f 2f69 2bbf 0aa7 97be
00000300: 8a38 65bf 73a1 01bf 7cbe 173f 56cb bfbc
00000310: b1f1 c5bc a2f9 d8be 2e09 61bf 1b09 3dbf
00000320: 679c abbe 7cd0 e93e e0a1 4a3f d72d 303e
00000330: eb56 bfbd 047e 39be dbd9 d4bb 9935 04be
00000340: 2687 07bd d3fd 41bd 004e 4dbe b571 88bf
00000350: 6455 43bf f694 0f3f f513 c8be 10ea 97bd
00000360: 89e7 8fbe c2db 62be 7434 2ebd e469 90bd
00000370: b1aa efbd 722e 33be 5ed9 05bc 6f02 dabd
00000380: e162 053e b04e a9bd dbd9 25be 6617 9d3d
00000390: 65f9 e0bd d794 5e3d b79e bbbc 6326 113e
000003a0: 76cd 7ebe 9222 10bf 1290 02bf b905 4fbf
000003b0: a9df c23e a4f0 e1be 980b 9c3d d9b2 02be
000003c0: ad84 eebd 35f5 d1bd bff3 cfbd 8fc1 8d3d
000003d0: 5995 333e eb09 85bf 48d2 82bf bcf5 e1bd
000003e0: b3c4 e5be 1e40 973f a46f 623f 48ad 50bd
000003f0: 1728 e43e 7e44 68be 50c6 e33e d30f 03c0
0.1715787 -0.0028711893 0.13165146 -0.033163663 -0.15346761 -0.13494658 -0.008009973 -0.04294502
0.11093007 0.09015107 0.04477695 -0.080273174 0.10922039 0.10847756 -1.489068 -0.21418256
0.62662303 -0.16205549 -2.9647226 0.39100572 -0.58903545 0.011346099 -0.09481628 0.17698666
-0.051442828 0.031080652 0.07944727 -0.048311677 -0.9388221 1.034165 -0.1437433 0.044994988
-0.60258085 -0.59178126 -0.6759829 -0.23234153 0.59185636 -0.0419865 -2.5088713 -0.54820496
-0.5347128 -0.10437813 0.16161984 -0.05338594 -0.06869934 -0.15147011 0.020504018 -0.088218026
0.08629611 0.00024755285 -0.18840112 -0.07690902 -0.04596982 -0.21341717 -0.070631586 0.08039396
-0.8739737 0.4504094 -0.71174705 -0.40757877 1.5401784 0.09898279 -0.5007323 -0.007878915
-0.08077133 0.18026142 -0.06424597 0.0018843325 -0.10243595 -0.125552 -0.09404794 -0.12908259
0.030115986 -0.013516606 0.049234267 -0.091867685 -0.17357062 0.06694102 0.03426129 0.021871157
-0.20026708 0.010897491 -0.14838757 -0.11419193 0.056034982 -0.020390706 0.11441149 -0.13278072
0.02496249 -0.15867001 -0.051899225 1.182118 0.28454792 -0.5321356 0.42188257 -2.0535502
-0.10166501 0.5214041 0.10329473 -0.091089 -0.02906691 0.037450336 -0.07619927 -0.13990994
0.08144318 0.098596185 -0.16136254 -0.0018468883 -0.084254034 -0.17735682 -0.07835547 -0.1098391
-0.078978464 -0.31225225 0.07171319 -0.051272687 -0.068201825 0.1307009 0.06303754 0.12033079
0.19392918 -0.2290829 -0.00037659076 -0.0626839 -0.15306519 0.022269934 -0.20405263 -0.029729903
-0.12438872 -0.06827767 -0.08988063 -0.09589737 0.0015130889 -0.16051786 -0.027970437 -0.18263166
-0.20794609 -0.019516995 0.16106896 0.05925248 0.011069933 -0.13788763 -0.2558255 -0.00010556368
-0.012722013 -0.086899765 -0.10269568 -0.014010968 -0.23233439 0.09672791 0.043738358 0.085149765
-0.004961301 0.034977045 0.8643992 -1.0100439 0.4398441 -1.4720716 0.15224978 0.0341311
0.24751967 -0.56164396 0.057379432 -0.33477306 -0.0003893311 -0.3392173 -0.7532187 0.119579144
-0.030801773 0.04770031 0.27866688 -0.29778302 0.61593336 -1.0386275 -0.26685727 0.036242902
0.022571387 0.03666028 0.026406718 0.07408318 -0.03662898 -0.014389782 0.069167554 -0.0026372455
-0.17040962 -0.012520124 -0.07203279 0.076252416 0.20487304 0.8630823 -0.6695737 -0.29619628
-0.89539397 -0.50636977 0.5927503 -0.023412388 -0.024163099 -0.42377955 -0.8790463 -0.7384202
-0.33517763 0.45666873 0.7915325 0.17204987 -0.0934275 -0.18114477 -0.006495697 -0.12911071
-0.033087872 -0.047361206 -0.20049286 -1.0659701 -0.7630217 0.5608667 -0.39077726 -0.07417691
-0.28106335 -0.22154143 -0.042530492 -0.07051447 -0.11702479 -0.17498186 -0.0081695 -0.106449954
0.13026 -0.082669616 -0.16196387 0.076704785 -0.10985068 0.054341163 -0.02290283 0.141748
-0.24883065 -0.5630275 -0.51001084 -0.8086811 0.38061264 -0.44128907 0.07619399 -0.12763537
-0.116464 -0.10251848 -0.10153913 0.06921684 0.1753744 -1.0393652 -1.0220423 -0.11033198
-0.44876632 1.1816442 0.884516 -0.050946504 0.44561836 -0.22682378 0.44487238 -2.0478408

in_to_y1.bias f4 [256]
00000000: d1df 97be 5bce ccbe b2eb b63e 46f3 9bbe
00000010: 0da9 f2bc 3a8d 07bd b225 99be 20ff 46bc
00000020: 60d7 d33d c6e0 77be 4a6e 5f3c 2ce0 f6bd
00000030: 5d81 bbbe b85a a0be 22b3 83be 9a9f 423c
00000040: 0ca0 80be bceb 47be 656e 893d f4a6 23be
00000050: a602 b0be 5c17 cdbe e357 8e3e 8559 593e
00000060: fc4a 823e 5299 b1be b895 3abe 91e8 da3e
00000070: f2fd c93e 7298 8abd b2e2 b1bd 011f e53c
00000080: 7e04 bbbe b690 813e 1d37 8abe 6c52 0b3f
00000090: dc89 f23e 75e1 60be 3f86 e6bd d1ed efbe
000000a0: d156 aabe d1b7 1abe 4596 a9be e3c0 97be
000000b0: 5dfa 0fbe b8e0 f73e 1b8b 88be 03a6 aabe
000000c0: 22b2 4d3c 58ee 8e3e 294e 5f3e aa9b a3be
000000d0: 05c2 113f 738a e13d 315a dd3d 303f 2c3e
000000e0: 1103 9a3d 3243 30bd 8229 3d3e b897 07bc
000000f0: 1d06 cc3e 30da 113e 7c00 afbe e3d7 8a3e
00000100: 8b42 8fbe 2af4 3fbe b48c b03d 1b53 62be
00000110: 5c0d cfbd ad8a 26be f8d9 8c3e d1c2 3fbe
00000120: ce64 b33d 9bf7 b2be e390 583e 39e9 50be
00000130: 0b60 ec3e 3b47 90be 53a1 223e b4c0 b4be
00000140: e288 63be d794 703e 6f0a bfbd e772 70be
00000150: f897 5fbe 3218 e13c 704f 57bd 46c4 ef3d
00000160: 011f 4ebe a8bd 8ebe e5a5 a73e 18a9 313e
00000170: a8b9 04bd cccb 7abe 2b40 13be 2abb e1bc
00000180: 69c0 703e ea8e 353e c037 263f d695 1cbe
00000190: bb68 5cbd 6c91 abbe edce c7be 7f89 6fbe
000001a0: 2d61 f0bd 963d b6be d4f3 bbbd 406c 52bd
000001b0: b8d6 f5bd fd04 a63d f01f 7bbe 9dbb 64be
000001c0: 1e0c 9dbe 6b74 763e 21f0 ef3d 252e f63d
000001d0: 1b33 e63d ff1b 043e 4cec 9ebe 8e70 a2be
000001e0: 25bb bbbe 0e08 49be 72f1 aabe 436d 893e
000001f0: fa2f 4bbd 004a 75be 4693 c8bd f90d dbbd
00000200: e932 d23d 9c13 6bbe b3af 833d 784f 8fbe
00000210: 6113 103e 4dfa f33c 9c75 6dbe 8af3 fabe
00000220: 81ae a73d e234 5bbe 293d b4bc 545b 783e
00000230: d363 af3b 7bb8 b9bd ef5b e53e 49fb 04bf
00000240: 417e 69be 8e74 85be e89a 773e 7944 8a3d
00000250: 8c88 aa3d 9985 853e 68cc b43e e3ff f8bd
00000260: 312d b2be bdd3 b93d 6c3b 1e3e 12e1 d43b
00000270: a693 cd3e 1a93 d3bc dad7 c23e 6b0b e13e
00000280: ade8 f83c 0307 04bf 727e 84be ca4d 3abe
00000290: efa0 b73e 1466 ba3e 2763 713e ded2 973e
000002a0: 639c b2bd bde8 a1bd 8e38 9f3d 9805 83ba
000002b0: 5a8f 86be 2861 48bc d588 3abe ef51 0ebf
000002c0: 93c6 49bd 2436 a53d 2723 e3bc df41 04be
000002d0: d8c9 9abe 5ee3 aabe b2cc b03e a8da 423e
000002e0: 00c3 b7bd b94b f7bd b832 37bd d989 8bbe
000002f0: 8caa 183e 4b44 afbd 3ee6 8c3e df7f 143e
00000300: 750a 833e 8429 92be f5d8 023f df5d 78bd
00000310: 512f f3bd 3cfe 23bd 859e ecbd d80e 483b
00000320: ad99 1ebd 005e 37bc 0f27 ac3d d0cb f1bb
00000330: b04a 8c3e 963c abbd 8f1f b3be 935f 693e
00000340: 0800 83bd 87e9 2abf db43 9a3e 8f07 b33e
00000350: 09c5 03be 683c 96be 0401 783b 5f8e ed3e
00000360: 202c 3a3c 0fdc 063c 0ad7 92bd b556 41be
00000370: b993 b8be da45 3c3e ca80 20be 5eb5 b03d
00000380: 5a8e 843d ae4d abbd 030b 013e 16e3 9b3e
00000390: 7e62 e4bd 1965 79be 2ea5 e23e 9842 9dbe
000003a0: ecb9 483e 419a a9be 6ad2 8f3e 55db bebe
000003b0: 318c 563f fa10 f13e 4e89 e43c 60aa 89be
000003c0: 7286 d1be b054 f7bc 71eb b7be ec12 bf3e
000003d0: 38ce 40be 9789 2d3e aba9 4a3d 6e0a 0b3e
000003e0: c95a 6dbe 77b2 a13e cc6a 03bf df27 363f
000003f0: d21b 00be 0b91 41be ba7d 95bd ce92 51be
-0.29662946 -0.40001187 0.35726696 -0.3045904 -0.029621625 -0.03309367 -0.29911572 -0.0121457875
0.10343814 -0.24206838 0.013637135 -0.12054476 -0.36622134 -0.31319213 -0.25722605 0.011878872
-0.25122106 -0.1952352 0.06710509 -0.15981656 -0.3437702 -0.40056884 0.27801427 0.21225555
0.25447834 -0.34687287 -0.18221176 0.4275556 0.39451557 -0.06767358 -0.08685817 0.027968885
-0.36526865 0.25305718 -0.26995173 0.5442264 0.47370803 -0.21961005 -0.11256074 -0.46861127
-0.3326936 -0.15109183 -0.3312246 -0.29639348 -0.1406035 0.48413634 -0.2666863 -0.33329782
0.012554677 0.27916217 0.2180716 -0.319547 0.56936675 0.11012735 0.10808218 0.16820979
0.07520116 -0.043032832 0.18472865 -0.008275919 0.39848414 0.14243388 -0.34180057 0.27117833
-0.27980456 -0.18745485 0.08620587 -0.22102015 -0.1010997 -0.16263838 0.27510047 -0.1872666
0.08759461 -0.34954533 0.2114902 -0.20401467 0.46167025 -0.28179345 0.15881853 -0.3530327
-0.22220185 0.23494278 -0.09328162 -0.23481332 -0.21835315 0.027477358 -0.052565992 0.11707358
-0.20129015 -0.2787907 0.32743755 0.1734966 -0.032403618 -0.24491805 -0.14379947 -0.027555067
0.23510899 0.17730299 0.6492882 -0.15291533 -0.053810816 -0.33509386 -0.3902506 -0.23392294
-0.11737285 -0.3559386 -0.09177366 -0.051372766 -0.12003845 0.0810642 -0.24523902 -0.22337194
-0.30673307 0.24067847 0.11715723 0.1202052 0.11240216 0.12901305 -0.31039655 -0.31726497
-0.36666217 -0.19631979 -0.33387333 0.26841173 -0.0496063 -0.2395401 -0.09793715 -0.106960244
0.102636166 -0.22956699 0.06429996 -0.27990317 0.14069892 0.029782439 -0.23189396 -0.4901393
0.08187581 -0.21406892 -0.02200182 0.24253589 0.005352476 -0.0906839 0.44796702 -0.5194593
-0.22802068 -0.26065487 0.24180186 0.067513414 0.083268255 0.2607849 0.353122 -0.121581815
-0.34800103 0.09073589 0.15452355 0.006496557 0.4015171 -0.02582698 0.38055307 0.43954024
0.030384386 -0.515732 -0.2587772 -0.18193737 0.3586497 0.36406004 0.2357298 0.29653066
-0.08721235 -0.079057194 0.07774459 -0.0009996174 -0.26281244 -0.012230195 -0.1821626 -0.5559377
-0.04926164 0.08066967 -0.027726723 -0.12915753 -0.3023212 -0.33376592 0.3453117 0.19028723
-0.0897274 -0.1207499 -0.044726104 -0.27253607 0.14908808 -0.08557948 0.2751941 0.14501904
0.25593916 -0.285473 0.511123 -0.060636397 -0.11874259 -0.04003738 -0.11553673 0.0030526426
-0.038720775 -0.011191845 0.08405887 -0.0073790327 0.27400732 -0.08361165 -0.34985015 0.22790365
-0.0639649 -0.66762584 0.30129895 0.34966704 -0.12868132 -0.2934296 0.0037842402 0.46397683
0.011363059 0.008231177 -0.07169922 -0.18880732 -0.36050203 0.18386021 -0.15674129 0.08628343
0.06472464 -0.083644256 0.12601857 0.3044669 -0.111515984 -0.24354972 0.44266647 -0.3071487
0.19602174 -0.331255 0.2809022 -0.37276712 0.83807665 0.47083265 0.027897503 -0.26887798
-0.40922886 -0.03019175 -0.35921815 0.37319124 -0.18828666 0.16947018 0.049478214 0.13578197
-0.23179163 0.3158147 -0.51334834 0.7115459 -0.12510613 -0.18902986 -0.07299371 -0.20466158

y1_to_y2.weight f4 [256, 256]
00000000: a838 23be ab42 0b3e d9d1 d2be bc11 acbc
00000010: ed94 0cbf a0e1 aebf 438a 94bb 573c 9ebd
00000020: 1266 6ebf d525 383d 306b a63d f296 783e
00000030: 0ddc 9fbc 2fd7 22bf 3bd0 893d 4b58 51be
00000040: 004a 593e c221 bd3d 812e 2a3c 8b0f 663c
00000050: 3b89 3bbe b91a dabd 9423 413c 5f1f 0fbf
00000060: 13b8 cabe 63f1 573d 0abd 89bd e2ce dd3e
00000070: f54b 6bbf 97d9 02be 175d 7fbf a97e 6fbe
00000080: d5f1 e23d 7dd5 67be e87f 89bd d906 463f
00000090: 61ef 80be 2322 c83d 9b8d 9d3c 07f3 db3d
000000a0: 8aa9 383b 07ab fcbd 7132 cdbf ec17 31be
000000b0: 9ff8 51bc cb69 21be cb12 cf3c 64c2 1e3e
000000c0: 9ab4 eebc e367 9a3e e453 4cbe d849 8ebc
000000d0: c82b 8fbf 1e5a 043e fc8d d7bd 23f9 a2be
000000e0: d095 573c 52d7 93be 8288 2abf 0b49 a5bf
000000f0: dbaf f0bc bb85 c7bf b230 6cbd d91a 90bf
00000100: f046 c23b 9a15 e1bd 63bd 2fbe 55ef 7c3d
00000110: 8034 523d f3a8 4bbd 3c51 2dbf 6f48 9abd
00000120: 689f 4d3d 32b5 c33d 8ad3 1c3e 78d8 c23a
00000130: 5447 c1bf ca54 1a3e 501b ddbe 52e0 773c
00000140: b495 2cbe 7ac1 9cbd b61d 22be 03b7 533d
00000150: ac01 783f 5340 12be 7ee5 ebbe 7231 fe3e
00000160: e0b6 9b3d b8c0 f2bd 577c 4ac0 9e79 c93c
00000170: 8752 39be 0afc 63bc 138f 9a3c dc97 fb3c
00000180: c017 c73d 3240 a43e 69a2 87be c7e7 2d3e
00000190: 11f7 e1be b73e 9a3c 0ef2 00bf 0dd6 9abd
000001a0: d658 183d d96c 05c0 071f 24bf 3bfc 90bd
000001b0: 50e4 363e 5ba8 17bd c7c2 1c3f 54f6 26bd
000001c0: c3ac b7bc ee0e 5ebf 764e 7e3e cfed 0ebf
000001d0: b8f6 e7bf f327 7dbf 62ce 053e ee9f 5fbf
000001e0: 9777 163e 379f 66ba fa97 543e 37d0 b63e
000001f0: 1064 373e db2a b3bc af1c e0bc 1980 f6be
00000200: c747 83bf 6fb5 6e3d 9c65 2d3c 5ae6 c0bd
00000210: 15c7 cabf f8fa b03d 9fc3 d93d 93b3 75bd
00000220: 0202 f53d 7771 a1ba 43b6 8ebe 1d8d e33c
00000230: 95b2 25bd ea46 6c3d 162a 53c0 ca60 1c3f
00000240: 4095 213e a781 313d 7b7e 833e 270c efbd
00000250: ce05 b5bf 977d 773e c3a1 2e3e 2f78 26bd
00000260: 3453 8dbe fd2c 46be f655 c4be 7ce5 d0bd
00000270: baf9 09c0 a3ff 013d dbd3 78be 38c5 8d3e
00000280: e788 d3bc 66a6 45be 0b58 b6be b96f 0f3e
00000290: 2c1d dd3e c53e 043f b300 f5bb a495 05c0
000002a0: e441 a83e d8c1 703e 5162 51bf 09af 06c0
000002b0: 7049 adbc ad43 71be 8748 b1bf bcf1 293e
000002c0: edb0 053e 9d62 83be 0cd5 5a3e 3c44 753e
000002d0: fc28 be3c 636a 9c3d 5372 36be 2083 5cbf
000002e0: 424d 5abc d561 b5bf 440a 2abf d918 bdbd
000002f0: a1e7 09be 9c57 c7bd 0b4b 10bc 7563 e1be
00000300: b972 783d 6f3a 7c3d 248d aebf 908b fd3d
00000310: 9eab 1b3d e27c 4c3e 6bfb 6fbd d661 efbe
00000320: 60a5 8abd c3df 23be c2fa e53d 3b0c ff3d
00000330: afaf 30bf 30ad 283e 2cbd 603e c9f2 7dbf
00000340: 9322 60be ba35 dcbf 0dcf 1e3f 598d a2bf
00000350: f520 743d c687 263b 0b40 4cbf 5b67 a5bf
00000360: 2bca 4e3d 43ed 38bd 692d 67bf b6cb 10be
00000370: d0db 473d 3942 8b3e 5ab5 7e3d 2504 11bf
00000380: 14e5 9e3d 48ec 3e3e fd2b babd b07d eebe
00000390: d2fd d2bc bfdf 973b 32b2 3a3f 6a7a 683e
000003a0: 13a6 51bd 449c 323d 2729 cf3d 2a15 1dbd
000003b0: 6789 16bf 0e96 a8bc 56e2 4c3e 005d 1bbe
000003c0: d983 2b3d 813c 923d d6fc 8bbd ae1e a73e
000003d0: 8796 313e 58ff d03e dd82 de3e 53d5 ca3e
000003e0: cc75 a53e 9944 fdbe 1a70 2f3e ebc0 37bf
000003f0: aa4e f53d c00d ec3c 472f 70be 7ba0 d13c
-0.15939581 0.1359965 -0.41175726 -0.02100455 -0.5491474 -1.3662605 -0.0045330836 -0.07726353
-0.93124497 0.044957954 0.08125913 0.24276331 -0.019514108 -0.63609594 0.0672917 -0.20443837
0.21219635 0.092349544 0.010387064 0.014041792 -0.18314068 -0.10649628 0.011788268 -0.55907243
-0.39593562 0.05272044 -0.067255095 0.43321902 -0.91912776 -0.12778316 -0.9975142 -0.23388161
0.11081282 -0.22640033 -0.06713849 0.773542 -0.25182632 0.09772136 0.019232562 0.10739713
0.0028177225 -0.123373084 -1.6031018 -0.17294282 -0.012815624 -0.15763013 0.025277516 0.15503842
-0.029138852 0.30157384 -0.19953877 -0.017369196 -1.1185236 0.12925002 -0.10525128 -0.318307
0.013158277 -0.28875214 -0.66614544 -1.2912916 -0.02938073 -1.5587686 -0.057663627 -1.1258193
0.0059288666 -0.10990448 -0.17162089 0.061751682 0.0513196 -0.04972167 -0.6770208 -0.07533347
0.05020085 0.09556045 0.15315071 0.0014865538 -1.5099893 0.15071407 -0.431849 0.015129166
-0.16853982 -0.0765409 -0.15831646 0.051688205 0.9687755 -0.1428235 -0.46073526 0.496471
0.0760324 -0.118531644 -3.163839 0.024594124 -0.18097888 -0.013915071 0.018867051 0.03071206
0.09721327 0.32080227 -0.26491097 0.16982947 -0.4413381 0.018828733 -0.50369346 -0.07560358
0.037194096 -2.0847685 -0.64109844 -0.07079359 0.17860532 -0.03702579 0.61234707 -0.04076226
-0.022421246 -0.8674153 0.24834618 -0.5583162 -1.8122168 -0.9888908 0.1306701 -0.8735341
0.14694057 -0.00087975286 0.207611 0.3570573 0.17909265 -0.021871021 -0.027357427 -0.48144606
-1.025628 0.058278497 0.010583308 -0.09418936 -1.5842005 0.086416185 0.10633015 -0.05998571
0.119632736 -0.001231714 -0.2787343 0.027777249 -0.040453512 0.057684816 -3.2994437 0.6108519
0.1577959 0.043336537 0.25682434 -0.1167224 -1.4142396 0.24169002 0.17053895 -0.04064196
-0.2760254 -0.19353099 -0.38346833 -0.10200021 -2.155867 0.031737935 -0.24299566 0.27689528
-0.025822116 -0.19301757 -0.35614046 0.14007463 0.4318632 0.5165828 -0.00747689 -2.0872583
0.3286277 0.23511446 -0.81790644 -2.1044333 -0.021153182 -0.23560973 -1.3850259 0.1659612
0.13055773 -0.25661173 0.21370333 0.2395181 0.023212902 0.07637479 -0.17817049 -0.8613758
-0.013324084 -1.4170481 -0.66421914 -0.09233255 -0.13467266 -0.09733507 -0.008806954 -0.44021192
0.060656283 0.061579164 -1.3636823 0.12380135 0.038005464 0.19969514 -0.05858938 -0.4675433
-0.06769824 -0.16003327 0.11229469 0.12453505 -0.6901807 0.16472316 0.21947163 -0.99198586
-0.21888189 -1.7203896 0.62034684 -1.2699386 0.059601743 0.0025410517 -0.7978522 -1.2922167
0.05048577 -0.045148145 -0.90303665 -0.1414021 0.048793614 0.2719896 0.06218467 -0.5664695
0.07758537 0.18644822 -0.09090421 -0.46580267 -0.025755797 0.004634827 0.72928154 0.22702947
-0.05118377 0.043606058 0.10115271 -0.03835026 -0.5880341 -0.020579364 0.20008215 -0.15172195
0.041873787 0.071404465 -0.06835334 0.32640594 0.17342578 0.40819812 0.43459216 0.39615878
0.32316434 -0.49466398 0.17132607 -0.71778744 0.119778946 0.02881515 -0.23455535 0.025589218

y1_to_y2.bias f4 [256]
00000000: 93c7 ce3e 2a29 49bd 727d 783e 0649 873e
00000010: 1211 febd 7a0f b0bd ca24 933d 9887 c43e
00000020: b8ee b63e 727a 883d abd4 023e f9bf 91bd
00000030: 83e5 31bf 047a 58bd dc5c c0bd a644 2a3f
00000040: 8d8b dbbd a964 a0be 6308 4e3d 767d fbbd
00000050: 9e4d 933e 28d5 19bf e440 72bc 9593 1cbe
00000060: a8bb 33bd 84b5 33be add3 b23e 0fd5 05be
00000070: dcb0 18bd 86f0 d4bd 79d6 27be f0b5 babe
00000080: 2ab2 aa3e 2922 dbbd 5aee 1ebe c74b 09be
00000090: 0c47 98bd 93d9 ce3e 5689 21bd 112b a3be
000000a0: 8756 2cbe 12f8 153f 8a79 91be 127a 793e
000000b0: 6418 19be 4210 34bc c270 04be eec8 2abe
000000c0: ec26 e7bc e135 303f e1ed 2fbe af0a 2dbe
000000d0: 7433 27be b563 cebd 46f4 9bbd 96e4 d8be
000000e0: 5f7d 403d 70e3 bd3e 31e8 793d ff57 93bd
000000f0: 4a1f 903e da3e 9abd 9388 003e 64c0 b53d
00000100: 1df7 95be 889c 5bbe 358f f03e 89c7 143f
00000110: 8ddf cf3b 9020 25be ad11 babe a450 acbd
00000120: 27c4 f0be 234c 9d3e 6a01 23be 319c 99be
00000130: 1499 bbbe 9d01 7abd aa6d 2d3e 5556 0abe
00000140: 5ec6 15bf bcba 3abf 0bc4 07bf 39e7 59be
00000150: bdfe 4e3f ed46 9bbd eac7 5bbd 340c 99bd
00000160: 2f6a f6bd 4f03 28be 3007 e93e 2a09 60bd
00000170: 1503 edbe d81f 96be 90fc 46bd ecc4 3cbe
00000180: 010b e7bd 875c 16be 3a12 e23e d042 26be
00000190: 4320 7abd 69aa 963e ed1c f6bd 466c 06be
000001a0: b8d8 babe 83d5 173d e616 f3bd 7ee5 e3bd
000001b0: 180a 05be 53a1 ccbc 16f3 66bd f3b2 e03d
000001c0: 0703 0b3e 9abf aabe c828 c2bd 67fc f0bd
000001d0: b58d 9f3c 9fe2 f43e e8ac b43e 1b58 39be
000001e0: 2e67 01be a809 a83c fe7d 18be bbba 10be
000001f0: f6b4 983e 255a 08bd fbe4 8fbd 1bb8 1d3e
00000200: 96e2 b53e 2785 d53e a3d0 55bd c0e8 d7bd
00000210: 5fc9 c9be a549 3f3e 13a3 5cbe 42ac 80be
00000220: 8d0c 4abd 998a f2be b003 7b3d 1d95 9c3e
00000230: c366 97bd 9d88 00be 9d06 4cbe d1fa 5fbe
00000240: e028 8ebd 9100 1abe 881d 943e b5de b53d
00000250: dfa0 13be e667 e2bd ab54 d23e 70d1 e3bd
00000260: e2de a8bd 142a 5e3e 11a6 97be 491c 49be
00000270: 9bbf 13be 1a08 cfbd 112a 273e db3a 9bbd
00000280: 7e1d b8bd c8b8 b4be f2fc 58be eef9 b4bd
00000290: ec06 34be b8ce dfbd 95b1 663e dca0 e4bd
000002a0: 3475 ecbd 1fc7 82be d87d b6bd 3a36 d03e
000002b0: 2386 233e 39a9 01be 2eff a33d 70c7 26be
000002c0: 819c 74bf d925 6cbd 7ad0 61bd f1bc e2bd
000002d0: 919b 9bbd 22b3 febc f5dc debd c790 2c3c
000002e0: be1c c7bd a66b 653e 7225 0b3e 623e 8cbd
000002f0: 7862 28be bbd5 4abe 8e33 6fbe 30bc eabe
00000300: 1add 04be 05f1 46be f469 223e fd82 c8bd
00000310: 3f77 0cbf ebb1 97be cf39 6abd 72b4 a3bd
00000320: 9f97 603e c053 ed3c 60c0 ddbe 3094 4f3e
00000330: a79c 4bbe b47a d43e ff41 a5bd 9559 623e
00000340: 34fb be3e e26f 273f 204a 69bd 8180 b23d
00000350: efd0 bb3e d46b 013f 4f8b 673e b6ba f1be
00000360: dc04 d8bc fc6f 1ebd d378 f7be 027b 45be
00000370: a0a3 c7bd 9a26 3b3e fcf8 f43e 15ea 3ebd
00000380: 7643 26bd 8943 ebbd 1356 0cbe 7f93 d7bc
00000390: bd68 633e 16c1 e73c 5ce9 9e3e 1af5 373f
000003a0: f696 e3bd afd3 c6bd f628 32be 25cb 253d
000003b0: f47f 73bd 0216 0dbe 8fe4 ae37 9464 aabd
000003c0: c833 01be d9ca 053e 1e4f eebe b1e3 bcbd
000003d0: c95a 4bbd d00d fd3d 4ea5 82bb d526 e0be
000003e0: 3795 9bbd 0002 d5bd c9aa 96be c35c ab3e
000003f0: aa13 16bd 4a48 b0be 3366 08be 2d77 cd3c
0.40386638 -0.049111523 0.24266604 0.264229 -0.124056 -0.08596702 0.07184751 0.383847
0.35729003 0.066639796 0.12776439 -0.07116694 -0.6949083 -0.05285074 -0.093927115 0.66511
-0.107199766 -0.31326798 0.050300967 -0.12279789 0.28770155 -0.60090876 -0.014785979 -0.15290673
-0.043880135 -0.17549711 0.3492712 -0.13069557 -0.03727804 -0.10397439 -0.16390409 -0.36466932
0.33339053 -0.10699875 -0.15520611 -0.13407813 -0.07435426 0.4040037 -0.039437614 -0.31868795
-0.16829883 0.5858165 -0.2841304 0.24362972 -0.1495071 -0.010990204 -0.12933639 -0.16678211
-0.028216802 0.6883221 -0.17180587 -0.16898607 -0.16328222 -0.10077611 -0.07614951 -0.42361897
0.046994563 0.37087584 0.06101245 -0.07194518 0.28148872 -0.07531519 0.12552099 0.08874586
-0.29290095 -0.2144643 0.46984258 0.58116966 0.006343788 -0.16125703 -0.3634161 -0.084138185
-0.47024652 0.3072215 -0.15918508 -0.30001977 -0.36640227 -0.061036695 0.16936365 -0.13509496
-0.5850581 -0.72941184 -0.5303351 -0.2127961 0.8085745 -0.075818874 -0.05365745 -0.07473031
-0.12031972 -0.16407512 0.45513296 -0.05469624 -0.46291414 -0.2932117 -0.048580706 -0.18434495
-0.11281396 -0.14683734 0.4415453 -0.16236424 -0.061065923 0.29426888 -0.12017236 -0.1312724
-0.36493468 0.037068855 -0.11869602 -0.111277565 -0.12992132 -0.02497927 -0.05638417 0.10971632
0.13575374 -0.33349305 -0.09480435 -0.11766892 0.01947675 0.47829148 0.35288167 -0.18100016
-0.12637016 0.020512417 -0.14891812 -0.14133732 0.29825562 -0.033289094 -0.070260964 0.15402262
0.35524434 0.4170315 -0.052200925 -0.105424404 -0.39411446 0.18680437 -0.21546583 -0.25131422
-0.049328376 -0.47371367 0.061282814 0.30582514 -0.07392647 -0.12552114 -0.19924398 -0.21873023
-0.0694139 -0.15039279 0.2892878 0.088803686 -0.14416836 -0.11054973 0.41080222 -0.111239314
-0.082456365 0.21695739 -0.29618886 -0.19639696 -0.1442856 -0.10108967 0.16324641 -0.07579585
-0.0899 -0.35297227 -0.21190241 -0.08836733 -0.17580765 -0.109281 0.2252868 -0.11163494
-0.11545792 -0.25542542 -0.089107215 0.40666372 0.15969138 -0.1266221 0.08007656 -0.16287017
-0.95551306 -0.05765328 -0.05513046 -0.11071194 -0.07598031 -0.031091277 -0.10881988 0.0105325645
-0.09722279 0.22404346 0.13588503 -0.06847836 -0.16443813 -0.19808094 -0.2335951 -0.458467
-0.12974969 -0.19427879 0.1586073 -0.09790609 -0.54869455 -0.29627928 -0.057184037 -0.079934016
0.21932839 0.0289706 -0.43310833 0.20271373 -0.19883977 0.41499865 -0.080692284 0.22104485
0.37301028 0.65405095 -0.056955457 0.087159164 0.3668284 0.5055516 0.22611736 -0.47212762
-0.026369505 -0.038681015 -0.4833437 -0.19285205 -0.09748006 0.18276444 0.4784621 -0.046609957
-0.04059168 -0.11487491 -0.1370471 -0.026315449 0.22207923 0.028290313 0.31037414 0.7185837
-0.11112778 -0.09708344 -0.17398438 0.040476937 -0.059448197 -0.13777927 2.0848847e-05 -0.08319965
-0.12617409 0.13065661 -0.46544737 -0.09223116 -0.049647126 0.1235615 -0.003986991 -0.43779626
-0.0759682 -0.10400772 -0.29427174 0.3346921 -0.036639847 -0.34430152 -0.13320236 0.025081242

out.weight f4 [2, 256]
00000000: 29aa 0abe e47f 073e e051 37be 3eb0 e43f
00000010: 5a92 9e3d 2658 cabc 1a1c c53f 206e 843e
00000020: 80dd 9ebf 49cf 21bf 93c4 983f a68b 85bd
00000030: 8475 333f 8d9d 19bd 5f81 1abe 12bc a03e
00000040: 9e9d 803d 3655 42bd 2177 a3bf 5db8 203c
00000050: fc93 bebf 123d 53bf 0e5a aebd 1900 14be
00000060: b363 4cbd fd99 0dbf 18f6 a3be da72 abbf
00000070: 990b e5bd 7402 1d3d 43bf 703e 8749 e93f
00000080: 8803 89bc d552 18be 3844 813d 88ab 973d
00000090: b80f 33bd abc9 833f 33ed b83d 8005 80bf
000000a0: a4cb 263e e675 04c0 c341 2640 6d98 e8bf
000000b0: c4eb 1f3c ab39 b23b 5953 e6bc 0cb4 e3be
000000c0: 528f cc3d 36b8 d0bf 9567 cdb7 ac1e e83e
000000d0: bc15 b43f 32d2 9abc 90f1 493f ee4a f5be
000000e0: d754 0b3f a3af 33c0 5901 b33f 9790 4cbd
000000f0: d999 573f 8693 8fbd cf69 9bbf 84c7 963e
00000100: bd1a 3f3f cfc8 b73f fd91 b0bf 8ce1 88bf
00000110: 438a 55bc 42bb 2dbd 0425 823f 0bda c7bc
00000120: 8d45 4fbf a8ce 6340 bd3c a3bd 2543 92bf
00000130: 2b12 793f 6f87 d73b 89bd 613e 1537 d4bd
00000140: 9bd2 a5bf 1588 eebf 1021 b13e 97bf 223f
00000150: 4c32 33c0 e440 9d3c fbef 093c d9b2 173d
00000160: 804d 8d3d 9f60 8e3d 508b 3240 f353 22bf
00000170: fa76 e2bf 5b9b 6bbf 3591 c6bd a357 13c0
00000180: d19d 263e 391d ecbc 9971 25bf c06c cabf
00000190: 66f5 1c3d b105 f33f 6b97 7dbd 0f72 a73c
000001a0: 9e37 9f3e fc3f 3cbf b5b8 edbe d25c 8e3d
000001b0: d3ab b6bc e669 2140 4c59 88bb e649 95bf
000001c0: 1077 ba3f 933d 52bf df2e 96bd 32d2 42bc
000001d0: 370f 863f f256 84bf 62e8 8c3e e53d 06bf
000001e0: 7271 53bd ff20 0740 9445 8dbc 6f7a ec3d
000001f0: c300 3940 6d55 b2bf 0a03 af3b 0116 0bc0
00000200: 8da8 f5bf 17f0 9dbe 59ad b5bd dd78 89bd
00000210: c57f 5d3f 975f 903f 3deb 0240 0281 873d
00000220: cedc d2bd 9b10 05c0 e40f ae3f bc1e 543f
00000230: 8c70 b83d 3ce6 2a3d 14b1 4d3f 292a f3bf
00000240: 1a0d 0cbe e301 1d3e 7dd8 11c0 896a 1740
00000250: edd2 9e3d fe8c d83d f844 6e3e dd16 603d
00000260: f454 08be 9c26 b73e 8c9f febf 27a9 edbf
00000270: 90f1 24bd 8471 1e40 5b0d 07c0 93b3 90bd
00000280: 775c 08c0 28cf fe3f 5238 e8be 26a7 b03d
00000290: b7ee afbf 82e0 bfbd 43be 0d40 d0b4 6bbf
000002a0: 6013 83bd ce80 19bf 3ca3 9d3d 565a 943f
000002b0: 92d6 693f 3969 403d e96b 623f cf64 beb8
000002c0: 8902 a83d efa8 933f 1de1 f6bd 7e2f f73d
000002d0: d49b f33f 8489 10bf 4e1e fabc c58c 673f
000002e0: 7234 d2bd 30a6 a5be 51b5 08c0 a6e4 7f3d
000002f0: a84e a9bf 2ee7 3abf 980d 68bf 3857 74bd
00000300: d3ac a53d 8c38 7cbd ccc0 053e 6d98 11be
00000310: 79d6 17be d677 d93f 4c13 413c 528f e0bb
00000320: 0ff4 353e 81bf d13e 12a7 433f bd7d 20bf
00000330: 9b8e 343d ba88 99bf 9895 38be 0769 23c0
00000340: a1c6 b1be a20a 8c3e ded5 95ba 734f e63f
00000350: 007e 21bf 70ef e4be 8a97 f83f c41c 3fbf
00000360: 91ea d23d 4797 1f3d 577d c83f db80 163d
00000370: 5128 ef3d 9af1 1540 d373 6a3f 39fe 45bf
00000380: 7bd6 0b3d 8bea 373d a531 ee3f f8f9 873f
00000390: f7c1 1940 1854 15bf f451 18be 3e40 c8be
000003a0: ae9d 02bd 9648 8fbc 1d01 c43d c5ad 78be
000003b0: 0624 0e3e 179a 0c40 57e7 1740 a117 313d
000003c0: 0636 80bd 10d3 08c0 818c dc3f 0fea 92bb
000003d0: cf36 403f ae32 c3bf c292 3dc0 579c 963f
000003e0: 8e9e c13d 474e 5f3d ac76 c0be 2be5 823f
000003f0: 0079 193f be8a d1be 2a5c 6f3f b25f d53e
-0.13541473 0.1323238 -0.17902327 1.7866285 0.07742758 -0.024700236 1.5399201 0.2586527
-1.2411346 -0.6320692 1.193499 -0.065207765 0.7010119 -0.037503768 -0.15088414 0.31393486
0.06280063 -0.047444545 -1.277073 0.009809581 -1.4888911 -0.8251506 -0.0851327 -0.14453162
-0.049899768 -0.5531309 -0.32023692 -1.3394425 -0.11183853 0.038332418 0.2351046 1.8225564
-0.016725317 -0.14875348 0.0631184 0.07405764 -0.043716162 1.0295919 0.09029617 -1.0001678
0.1628862 -2.069696 2.5977638 -1.8171517 0.009760801 0.0054390035 -0.028115915 -0.44473302
0.09988274 -1.6306217 -2.4486138e-05 0.453359 1.4069133 -0.018899057 0.7888422 -0.4790873
0.5442633 -2.807595 1.3984786 -0.04994258 0.8421913 -0.0701056 -1.2141665 0.29449093
0.74650174 1.4358157 -1.3794552 -1.0693831 -0.013033452 -0.04241491 1.0167546 -0.024395963
-0.809655 3.5594883 -0.07970569 -1.1426741 0.9729335 0.0065774242 0.22044958 -0.103620686
-1.2954897 -1.8635279 0.34595537 0.6357359 -2.7999449 0.019195981 0.008419032 0.037035797
0.068995476 0.06952023 2.789753 -0.63409346 -1.7692559 -0.9203393 -0.09695665 -2.302224
0.1627114 -0.028822528 -0.6462646 -1.5814438 0.038319968 1.8986112 -0.06191198 0.02044013
0.3109712 -0.7353513 -0.46429983 0.06951298 -0.022298729 2.5220885 -0.0041610356 -1.1663177
1.4567585 -0.82125205 -0.07333159 -0.011890935 1.0473393 -1.0339034 0.27521044 -0.52438194
-0.05162186 2.111389 -0.017245091 0.1154679 2.8906715 -1.393232 0.0053409385 -2.173218
-1.9192063 -0.30847237 -0.08870954 -0.06712506 0.86523086 1.1279172 2.0456078 0.06616403
-0.102960214 -2.0791385 1.35986 0.82859397 0.090058416 0.041723475 0.80348325 -1.8997241
-0.13676873 0.15332751 -2.2788384 2.3658774 0.07755075 0.10573767 0.23268497 0.054709304
-0.13313657 0.35771644 -1.989244 -1.8567246 -0.040269434 2.4756784 -2.1101902 -0.07065501
-2.1306436 1.9906969 -0.4535547 0.08625631 -1.3744725 -0.09368993 2.2147377 -0.9207277
-0.0640018 -0.59962165 0.0769715 1.1590068 0.91343033 0.04697535 0.8844591 -9.078683e-05
0.082036085 1.153593 -0.12054656 0.12069605 1.903193 -0.5645983 -0.030532029 0.9044917
-0.102639094 -0.32353354 -2.1360667 0.062473916 -1.3227129 -0.73009 -0.9064574 -0.05965349
0.08089604 -0.061577365 0.13061827 -0.14218302 -0.14827909 1.6989696 0.011784386 -0.0068530226
0.17768882 0.40966418 0.76426804 -0.6269186 0.04408131 -1.1994851 -0.18025815 -2.5532854
-0.34721854 0.27351862 -0.0011431535 1.7992996 -0.63082886 -0.44713926 1.9421246 -0.7465327
0.10298646 0.03896263 1.5663251 0.03674398 0.116776116 2.3428712 0.91582984 -0.7734104
0.03414009 0.044901412 1.86089 1.062316 2.4024637 -0.5833144 -0.14875013 -0.39111513
-0.031888656 -0.017490666 0.09570525 -0.24285038 0.1388093 2.196905 2.3734949 0.043235425
-0.06260304 -2.1378822 1.7230378 -0.0044834684 0.7508363 -1.5249841 -2.9620824 1.1766461
0.0945407 0.05451801 -0.3759054 1.0226187 0.59950256 -0.40926164 0.93500006 0.41674572

out.bias f4 [2]
00000000: b450 25bc 5fd9 5abe
-0.010090042 -0.21371983

std_out.weight f4 [2, 256]
00000000: 9ee8 863d 6487 fe3d 9643 8d3e 704c 11be
00000010: e678 4d3d 3e7d d1bd 091b 25be 7978 e3be
00000020: becc a1bd 7e97 e5bd bba6 09be 06e7 2abe
00000030: 550e 02be 3a19 2bbc dd04 5ebc 59af a0be
00000040: cc1f 563d 00c0 b13d b797 59be 6899 c23d
00000050: 87bd 613e 426b eb3d 6346 633e f30c cb3d
00000060: 4bc4 c2bd 9d54 2f3e 1fb8 b4be 33c7 5f3e
00000070: 2532 8abd 9857 af3c ef58 d2bc cefe 893d
00000080: 2278 603e 7654 f1bc 7c16 e33c dcc6 bdbb
00000090: ee84 97bb 4e40 733d e1b2 a6be d0dc 11bd
000000a0: 3ee6 e2bd 54ce 813d e060 61be 807f f3bd
000000b0: 5c3d 82bd 8562 393d 2352 9cbd 7a2e 753e
000000c0: cf4b 563d 7d54 c5bd 17e5 983d 6bdf 113d
000000d0: e56a a13d 2936 fa3c 7b16 cb3e a6c1 073c
000000e0: 68ea e53e 605f e3be c508 7ebe 1384 d6bc
000000f0: 16b3 e33e b0bd e1bd 5dba 84be 42d0 733e
00000100: df4f c0bd 3a3a 38bd c9f8 083f bfc6 4ebe
00000110: 6fbe bbbc ff0f 803e 18f8 163d 7424 e13c
00000120: 388c 003e 2579 febd 28fd 18be 4498 c9bd
00000130: 5549 a2bd 990a 9cbd 52c3 c83e 6ec6 633d
00000140: 2347 9e3e adf7 2b3f 69ac c3bb 0c66 83be
00000150: 0b70 2ebe 7948 e3bd 550b 403d 7356 47bd
00000160: 21bc 67bd b6c6 d0bb 741c 623e 505a 803e
00000170: ad13 8c3e 9842 2bbe 46af 1d3d c6c6 7b3d
00000180: 47ea 123e bb0c 033d 9e44 f83e 731b 5ebe
00000190: 92bd fe3c ecc4 39bd 7d8a a0bd dc6f 8f3d
000001a0: 67a9 073e a66f aa3d b7b9 7a3e 0f4e 253e
000001b0: 829b 90bd 26f0 7c3e 3f76 bfbd 01a4 4d3e
000001c0: 5190 17ba 7c0c 3c3e cf9a b43d a391 3a3e
000001d0: 79a2 a33d e3e5 883b dcd9 a1be a050 203d
000001e0: 647a c1bd c687 2e3d 0a07 133d 1b4a 413d
000001f0: 9693 7d3f 005c 873e 3669 d0bc 890d c83c
00000200: d349 a23e e2ec f63d d89f 753d 5f82 133e
00000210: 7ffa 933e 33ea e6be 533f dd3c 357b 5bbe
00000220: ee7b 193e 896b 793e f6cc a43e 469f 563b
00000230: 0551 473d 954d db3c fb29 00bf f297 ab3e
00000240: 3cb9 9bbd 9520 ea3c d869 1dbd afbb 94be
00000250: 1754 08bd 552b dc3d c7f4 dcbd be69 513e
00000260: 897a f83d 3883 343e 1a27 1b3e 3e8d 9f3e
00000270: 5ae7 81bc bd60 dc3d 45dc cebe 22f5 573d
00000280: 0f85 f13e 8148 22be 629e 8b3c 2cc6 303d
00000290: 34f4 3e3e 8329 a9bd 29c0 a63e eb5d b33d
000002a0: 9f21 04bd 2988 1f3f c499 8abc 530a dabc
000002b0: e9b4 363f ce9a b23d 3496 893e 7f4b 103c
000002c0: d50d f0be 328e 11be 0ece 30be c528 61bd
000002d0: f5f1 203e 06da 073f 4da8 8d3d 2355 e93d
000002e0: 311d 41bd 7617 12bd 0ffe 1ebe b14e 813d
000002f0: 4b89 e0bd 20f4 d93c 1477 3fbe db92 1c3f
00000300: 703f 4e3d 007a 0e3e 542f 84be 1901 cf3d
00000310: 0db3 dabd 8c16 613e 33e2 94bd 2df9 a3bd
00000320: de21 833e 5820 9c3d 3be1 c83e f138 093e
00000330: 1526 b03d 3577 8abd b7b2 03bd f990 1abe
00000340: 8290 c1bd 89b3 edbd ae20 8abd ee65 7bbe
00000350: c2ed 0f3e 66be d83d daeb 8fbe eede f5bc
00000360: 440e 84bd da5e 1ebd 9fca 913c 0802 c83c
00000370: fcbd 49ba b423 97be 9d36 c0bd 180e e0bd
00000380: 1c3f 103d 042d c53d 69a3 3c3e 8293 923e
00000390: c6df 89bb 80c1 d0bd ede2 a33d bc4b 53be
000003a0: 3763 e4bb 5594 b63a cad6 c7bd 08d8 0cbe
000003b0: 460b a43e 0c61 a23e f578 89be 4e96 90bc
000003c0: 14f8 893d 78fb 04bd dfc2 b3be 410c 39bd
000003d0: 27f1 bebc 0651 4fbe 0856 af3d ace4 55be
000003e0: f449 cc3d 5614 783d ba40 c8be 83b2 c23e
000003f0: dc51 6f3e 8ac4 74be c2c4 7b3d 4c0f d4bc
0.06587337 0.124281675 0.27590626 -0.14189315 0.050164126 -0.10228966 -0.16123594 -0.4442785
-0.079003796 -0.112105355 -0.13442509 -0.16689691 -0.1270078 -0.010443026 -0.013550964 -0.3138378
0.052276418 0.08679199 -0.21249281 0.09501916 0.22044955 0.11495067 0.22194819 0.09914579
-0.09510096 0.17122121 -0.35296723 0.21853332 -0.067478456 0.021404073 -0.025677172 0.06738053
0.21920827 -0.02945922 0.027720682 -0.005791528 -0.0046240008 0.059387498 -0.3255835 -0.035610974
-0.110790715 0.06338182 -0.22009611 -0.11889553 -0.063593596 0.04525997 -0.07632854 0.2394351
0.05231839 -0.096352555 0.074655704 0.03561346 0.07881717 0.030543404 0.3966559 0.0082859155
0.449054 -0.44408703 -0.24808033 -0.026186025 0.4447257 -0.11022508 -0.25923434 0.23809913
-0.09390234 -0.044977404 0.53504616 -0.20193003 -0.022917954 0.25012204 0.036857694 0.027483203
0.12553489 -0.1242545 -0.14940321 -0.098434955 -0.07924143 -0.07619209 0.39211518 0.05560916
0.30913648 0.671748 -0.0059714806 -0.25663793 -0.17034929 -0.110978074 0.046885807 -0.04866643
-0.056575898 -0.0063713444 0.22081167 0.25068903 0.2735876 -0.16724622 0.038497232 0.061468862
0.14347182 0.031994563 0.4848985 -0.21690159 0.031096254 -0.045353815 -0.078389145 0.07003757
0.13248216 0.083220765 0.24484907 0.16143058 -0.07060911 0.24700984 -0.093487255 0.20082094
-0.00057816977 0.18364137 0.0881859 0.18219618 0.079899736 0.0041777953 -0.31611526 0.03913939
-0.09447172 0.042609952 0.035895385 0.047189813 0.99053323 0.26437378 -0.025440793 0.024420517
0.31696948 0.120569006 0.059966892 0.14405201 0.2890205 -0.45100555 0.027007734 -0.21433719
0.14988682 0.24357428 0.32187623 0.0032748743 0.04866125 0.026770392 -0.5006406 0.33514363
-0.0760369 0.02857999 -0.03843102 -0.2904944 -0.03328332 0.107504524 -0.10788875 0.20450494
0.12132747 0.17628181 0.15151635 0.31162447 -0.015857387 0.10760639 -0.40402427 0.05272401
0.47171828 -0.1584797 0.017043296 0.04315774 0.18647844 -0.08259871 0.32568482 0.08758148
-0.032258626 0.6231714 -0.016919024 -0.026616251 0.71369797 0.08720933 0.26872408 0.008807062
-0.46885553 -0.142144 -0.17266104 -0.05497052 0.157173 0.5306705 0.069168665 0.11393192
-0.04714698 -0.035666905 -0.15526603 0.06313837 -0.109636866 0.026605666 -0.18697768 0.61161584
0.050353467 0.13913727 -0.25817358 0.10107631 -0.106786825 0.21981257 -0.072697066 -0.08006511
0.25611776 0.076233566 0.39234337 0.13400628 0.086010136 -0.06761018 -0.032152858 -0.15094365
-0.09451391 -0.11606509 -0.067445144 -0.24550602 0.14055541 0.105831906 -0.28109628 -0.030013528
-0.064480335 -0.038664676 0.017796813 0.024415031 -0.00076958514 -0.29519427 -0.09385417 -0.10940188
0.035216436 0.09627727 0.18421711 0.28628165 -0.004207584 -0.10193157 0.08002267 -0.20634359
-0.006969835 0.0013929704 -0.09757765 -0.13754284 0.3203985 0.31714666 -0.26850095 -0.017649796
0.0673677 -0.03246638 -0.35109612 -0.0451777 -0.02330835 -0.20245752 0.08561331 -0.20888013
0.09975043 0.06056627 -0.39111882 0.3802682 0.2337107 -0.23903099 0.06146694 -0.0258862

std_out.bias f4 [2]
00000000: 8c97 22bf 7d4f 4cbf
-0.6351249 -0.7980879

exp_avg f4 [256, 7]
00000000: 0400 0000 0400 0000 0400 0000 0400 0000
00000010: 0400 0000 0400 0000 0400 0000 0400 0000
00000020: 0400 0000 0400 0000 0400 0000 0400 0000
00000030: 0400 0000 0400 0000 a361 30b9 c55a 3dba
00000040: e0e6 4ab7 337e 91b9 d078 e136 903a 96b9
00000050: 0037 8737 0400 0000 0400 0000 0400 0000
00000060: 0400 0000 0400 0000 0400 0000 0400 0000
00000070: 0400 0000 0400 0000 0400 0000 0400 0000
00000080: 0400 0000 0400 0000 0400 0000 0400 0000
00000090: 0400 0000 0400 0000 0400 0000 0400 0000
000000a0: 0400 0000 0400 0000 0000 0000 0000 0000
000000b0: 0000 0000 0000 0000 0000 0000 0000 0000
000000c0: 0000 0000 0000 0000 0000 0000 0000 0000
000000d0: 0000 0000 0000 0000 0000 0000 0000 0000
000000e0: 4ee4 30b8 bafa 1b38 38ae a336 3bfc cdb7
000000f0: 4378 5fb8 68a6 ca37 6e2b 2e37 0000 0000
00000100: 0000 0000 0000 0000 0000 0000 0000 0000
00000110: 0000 0000 0000 0000 0400 0000 0400 0000
00000120: 0400 0000 0400 0000 0400 0000 0400 0000
00000130: 0400 0000 0000 0000 0000 0000 0000 0000
00000140: 0000 0000 0000 0000 0000 0000 0000 0000
00000150: 0000 0000 0000 0000 0000 0000 0000 0000
00000160: 0000 0000 0000 0000 0000 0000 7cb4 5139
00000170: 7382 ba3a bac9 d33a d6c1 db3a 663a 1839
00000180: 0f2c be3a 3f9c c23a 0000 0000 0000 0000
00000190: 0000 0000 0000 0000 0000 0000 0000 0000
000001a0: 0000 0000 0400 0000 0400 0000 0400 0000
000001b0: 0400 0000 0400 0000 0400 0000 0400 0000
000001c0: 0400 0000 0400 0000 0400 0000 0400 0000
000001d0: 0400 0000 0400 0000 0400 0000 0400 0000
000001e0: 0400 0000 0400 0000 0400 0000 0400 0000
000001f0: 0400 0000 0400 0000 0400 0000 0400 0000
00000200: 0400 0000 0400 0000 0400 0000 0400 0000
00000210: 0400 0000 0000 0000 0000 0000 0000 0000
00000220: 0000 0000 0000 0000 0000 0000 0000 0000
00000230: 0000 0000 0000 0000 0000 0000 0000 0000
00000240: 0000 0000 0000 0000 0000 0000 0400 0000
00000250: 0400 0000 0400 0000 0400 0000 0400 0000
00000260: 0400 0000 0400 0000 007a 31ba cc66 1dba
00000270: 10c9 83b9 1e8f 99b9 bb32 2dba 4eaa 2dba
00000280: b4b5 4cba 0400 0000 0400 0000 0400 0000
00000290: 0400 0000 0400 0000 0400 0000 0400 0000
000002a0: 913e 1d39 e1fc 12b8 16fc 6cb9 4dc0 c2b8
000002b0: 5823 9738 b826 f3b6 d2c0 8fb8 0000 0000
000002c0: 0000 0000 0000 0000 0000 0000 0000 0000
000002d0: 0000 0000 0000 0000 0000 0000 0000 0000
000002e0: 0000 0000 0000 0000 0000 0000 0000 0000
000002f0: 0000 0000 e669 8ab9 d6c3 5aba b7ce 6bba
00000300: f03f 0aba 3c46 64b9 e4ea 6fba 12d9 66ba
00000310: 77d5 21ba 99d1 89bb 437e 8ebb 3b86 2bbb
00000320: eec1 22ba ba5b 93bb 8e8e 92bb 0400 0000
00000330: 0400 0000 0400 0000 0400 0000 0400 0000
00000340: 0400 0000 0400 0000 0400 0000 0400 0000
00000350: 0400 0000 0400 0000 0400 0000 0400 0000
00000360: 0400 0000 0400 0000 0400 0000 0400 0000
00000370: 0400 0000 0400 0000 0400 0000 0400 0000
00000380: 0000 0000 0000 0000 0000 0000 0000 0000
00000390: 0000 0000 0000 0000 0000 0000 0400 0000
000003a0: 0400 0000 0400 0000 0400 0000 0400 0000
000003b0: 0400 0000 0400 0000 0000 0000 0000 0000
000003c0: 0000 0000 0000 0000 0000 0000 0000 0000
000003d0: 0000 0000 7bd4 e339 489e 093a 40bf 7138
000003e0: a8b7 92b9 cced 9039 48a3 0e3a 9c82 883a
000003f0: 1556 9339 40cc 063a fa02 853a 669b 0239
6e-45 6e-45 6e-45 6e-45 6e-45 6e-45 6e-45 6e-45
6e-45 6e-45 6e-45 6e-45 6e-45 6e-45 -0.0001682104 -0.00072233035
-1.2093893e-05 -0.0002775058 6.719587e-06 -0.00028653862 1.6118865e-05 6e-45 6e-45 6e-45
6e-45 6e-45 6e-45 6e-45 6e-45 6e-45 6e-45 6e-45
6e-45 6e-45 6e-45 6e-45 6e-45 6e-45 6e-45 6e-45
6e-45 6e-45 0.0 0.0 0.0 0.0 0.0 0.0
0.0 0.0 0.0 0.0 0.0 0.0 0.0 0.0
-4.2174295e-05 3.7188387e-05 4.8780603e-06 -2.4555358e-05 -5.3279346e-05 2.4157765e-05 1.038132e-05 0.0
0.0 0.0 0.0 0.0 0.0 0.0 6e-45 6e-45
6e-45 6e-45 6e-45 6e-45 6e-45 0.0 0.0 0.0
0.0 0.0 0.0 0.0 0.0 0.0 0.0 0.0
0.0 0.0 0.0 0.00019999029 0.0014229551 0.0016158142 0.0016766142 0.00014517605
0.001450898 0.001484759 0.0 0.0 0.0 0.0 0.0 0.0
0.0 6e-45 6e-45 6e-45 6e-45 6e-45 6e-45 6e-45
6e-45 6e-45 6e-45 6e-45 6e-45 6e-45 6e-45 6e-45
6e-45 6e-45 6e-45 6e-45 6e-45 6e-45 6e-45 6e-45
6e-45 6e-45 6e-45 6e-45 6e-45 0.0 0.0 0.0
0.0 0.0 0.0 0.0 0.0 0.0 0.0 0.0
0.0 0.0 0.0 6e-45 6e-45 6e-45 6e-45 6e-45
6e-45 6e-45 -0.00067701936 -0.00060043926 -0.0002513607 -0.00029289065 -0.00066069857 -0.00066248036
-0.00078090583 6e-45 6e-45 6e-45 6e-45 6e-45 6e-45 6e-45
0.00014995995 -3.5044624e-05 -0.00022600623 -9.28646e-05 7.2068244e-05 -7.246472e-06 -6.854687e-05 0.0
0.0 0.0 0.0 0.0 0.0 0.0 0.0 0.0
0.0 0.0 0.0 0.0 0.0 -0.00026400312 -0.0008345222 -0.00089953415
-0.00052738097 -0.00021769939 -0.0009152128 -0.00088061497 -0.00061734713 -0.004205894 -0.0043485477 -0.0026172537
-0.00062087073 -0.0044970186 -0.0044725602 6e-45 6e-45 6e-45 6e-45 6e-45
6e-45 6e-45 6e-45 6e-45 6e-45 6e-45 6e-45 6e-45
6e-45 6e-45 6e-45 6e-45 6e-45 6e-45 6e-45 6e-45
0.0 0.0 0.0 0.0 0.0 0.0 0.0 6e-45
6e-45 6e-45 6e-45 6e-45 6e-45 6e-45 0.0 0.0
0.0 0.0 0.0 0.0 0.0 0.00043455124 0.0005249721 5.7636993e-05
-0.00027984125 0.00027642993 0.0005441201 0.0010414901 0.0002810216 0.000514213 0.0010147982 0.00012455657

exp_avg_sq f4 [256, 7]
00000000: f401 0000 f401 0000 f401 0000 f401 0000
00000010: f401 0000 f401 0000 f401 0000 f401 0000
00000020: f401 0000 f401 0000 f401 0000 f401 0000
00000030: f401 0000 f401 0000 673e 8236 8e55 8939
00000040: eff1 a339 f3e2 2b39 8161 3236 aa00 8f39
00000050: 04f8 9839 f401 0000 f401 0000 f401 0000
00000060: f401 0000 f401 0000 f401 0000 f401 0000
00000070: 97c0 f303 458c 7907 cd1d 9d06 11ef 9e07
00000080: 456e c903 e333 7c07 190f a106 c401 220f
00000090: a814 e210 9a98 0911 c82c 1d0c 004b 090e
000000a0: af8d 9610 1a0c 1710 0000 0000 0000 0000
000000b0: 0000 0000 0000 0000 0000 0000 0000 0000
000000c0: 0000 0000 0000 0000 0000 0000 0000 0000
000000d0: 0000 0000 0000 0000 0000 0000 0000 0000
000000e0: ff88 8835 dc3b 2135 4cec 6435 8356 bf33
000000f0: 5bf9 9c35 9668 3235 6260 5d35 0000 0000
00000100: 0000 0000 0000 0000 0000 0000 0000 0000
00000110: 0000 0000 0000 0000 f401 0000 f401 0000
00000120: f401 0000 f401 0000 f401 0000 f401 0000
00000130: f401 0000 0000 0000 0000 0000 0000 0000
00000140: 0000 0000 0000 0000 0000 0000 0000 0000
00000150: 0000 0000 0000 0000 0000 0000 0000 0000
00000160: 0000 0000 0000 0000 0000 0000 a1d6 4c36
00000170: cfeb c238 9a93 d638 c2b7 0739 e865 fa35
00000180: 2745 c638 7af1 d138 0000 0000 0000 0000
00000190: 0000 0000 0000 0000 0000 0000 0000 0000
000001a0: 0000 0000 f401 0000 f401 0000 f401 0000
000001b0: f401 0000 f401 0000 f401 0000 f401 0000
000001c0: f401 0000 f401 0000 f401 0000 f401 0000
000001d0: f401 0000 f401 0000 f401 0000 f401 0000
000001e0: f401 0000 f401 0000 f401 0000 f401 0000
000001f0: f401 0000 f401 0000 f401 0000 f401 0000
00000200: f401 0000 f401 0000 f401 0000 f401 0000
00000210: f401 0000 0000 0000 0000 0000 0000 0000
00000220: 0000 0000 0000 0000 0000 0000 0000 0000
00000230: 0000 0000 0000 0000 0000 0000 0000 0000
00000240: 0000 0000 0000 0000 0000 0000 f401 0000
00000250: f401 0000 f401 0000 f401 0000 f401 0000
00000260: f401 0000 f401 0000 ce92 6a36 ae76 d937
00000270: 3a73 2438 2618 0f36 0f12 6936 4a3c e637
00000280: 341f 0a38 f401 0000 f401 0000 f401 0000
00000290: f401 0000 f401 0000 f401 0000 f401 0000
000002a0: d5e7 9635 05b8 f035 5746 e736 dd0a 7f35
000002b0: 6c7a ce35 ecc9 9635 4968 6136 0000 0000
000002c0: 0000 0000 0000 0000 0000 0000 0000 0000
000002d0: 0000 0000 0000 0000 0000 0000 0000 0000
000002e0: 0000 0000 0000 0000 0000 0000 0000 0000
000002f0: 0000 0000 c5a1 8536 81ae 1838 1893 4a38
00000300: 7bc9 a336 fd84 4b36 2c52 2838 08f0 3138
00000310: 4b78 3637 422e 053a 8ac2 113a 9985 1039
00000320: c34b 1237 eebe 0c3a 03ac 113a f401 0000
00000330: f401 0000 f401 0000 f401 0000 f401 0000
00000340: f401 0000 f401 0000 f401 0000 f401 0000
00000350: f401 0000 f401 0000 f401 0000 f401 0000
00000360: f401 0000 f401 0000 f401 0000 f401 0000
00000370: f401 0000 f401 0000 f401 0000 f401 0000
00000380: 0000 0000 0000 0000 0000 0000 0000 0000
00000390: 0000 0000 0000 0000 0000 0000 f401 0000
000003a0: f401 0000 f401 0000 f401 0000 f401 0000
000003b0: f401 0000 f401 0000 0000 0000 0000 0000
000003c0: 0000 0000 0000 0000 0000 0000 0000 0000
000003d0: 0000 0000 361d 8938 94da 6a3a 96ac 6e3a
000003e0: 8971 443a 1f43 8738 547b 733a f7e5 6c3a
000003f0: d37b ac36 4d9e 8138 f4ad a338 6486 6736
7e-43 7e-43 7e-43 7e-43 7e-43 7e-43 7e-43 7e-43
7e-43 7e-43 7e-43 7e-43 7e-43 7e-43 3.8815665e-06 0.0002619442
0.00031270037 0.00016392376 2.6580822e-06 0.0002727558 0.00029176485 7e-43 7e-43 7e-43
7e-43 7e-43 7e-43 7e-43 1.4326473e-36 1.87739e-34 5.9100624e-35 2.3913708e-34
1.1839035e-36 1.8973621e-34 6.0583653e-35 7.987557e-30 8.917311e-29 1.0854418e-28 1.2108316e-31 1.6922665e-30
5.9382866e-29 2.9788822e-29 0.0 0.0 0.0 0.0 0.0 0.0
0.0 0.0 0.0 0.0 0.0 0.0 0.0 0.0
1.0172661e-06 6.006428e-07 8.5280476e-07 8.909867e-08 1.1695478e-06 6.646236e-07 8.246917e-07 0.0
0.0 0.0 0.0 0.0 0.0 0.0 7e-43 7e-43
7e-43 7e-43 7e-43 7e-43 7e-43 0.0 0.0 0.0
0.0 0.0 0.0 0.0 0.0 0.0 0.0 0.0
0.0 0.0 0.0 3.05233e-06 9.294564e-05 0.00010231808 0.00012943058 1.865611e-06
9.454256e-05 0.00010010875 0.0 0.0 0.0 0.0 0.0 0.0
0.0 7e-43 7e-43 7e-43 7e-43 7e-43 7e-43 7e-43
7e-43 7e-43 7e-43 7e-43 7e-43 7e-43 7e-43 7e-43
7e-43 7e-43 7e-43 7e-43 7e-43 7e-43 7e-43 7e-43
7e-43 7e-43 7e-43 7e-43 7e-43 0.0 0.0 0.0
0.0 0.0 0.0 0.0 0.0 0.0 0.0 0.0
0.0 0.0 0.0 7e-43 7e-43 7e-43 7e-43 7e-43
7e-43 7e-43 3.4954169e-06 2.592368e-05 3.920796e-05 2.1322717e-06 3.4730217e-06 2.744621e-05
3.2930824e-05 7e-43 7e-43 7e-43 7e-43 7e-43 7e-43 7e-43
1.1243343e-06 1.793495e-06 6.892525e-06 9.501071e-07 1.5383825e-06 1.1234638e-06 3.3588315e-06 0.0
0.0 0.0 0.0 0.0 0.0 0.0 0.0 0.0
0.0 0.0 0.0 0.0 0.0 3.9825413e-06 3.6402143e-05 4.8297545e-05
4.881234e-06 3.0326767e-06 4.013085e-05 4.2423635e-05 1.0876053e-05 0.00050804403 0.00055602996 0.00013782679
8.719918e-06 0.0005369027 0.0005556943 7e-43 7e-43 7e-43 7e-43 7e-43
7e-43 7e-43 7e-43 7e-43 7e-43 7e-43 7e-43 7e-43
7e-43 7e-43 7e-43 7e-43 7e-43 7e-43 7e-43 7e-43
0.0 0.0 0.0 0.0 0.0 0.0 0.0 7e-43
7e-43 7e-43 7e-43 7e-43 7e-43 7e-43 0.0 0.0
0.0 0.0 0.0 0.0 0.0 6.53811e-05 0.0008958962 0.0009104697
0.00074937247 6.449804e-05 0.00092880917 0.0009036953 5.1404145e-06 6.180685e-05 7.804847e-05 3.4499908e-06
