Path_SAC_actor_L1.pth (torch, 833053 bytes, 24 tensors)

in_to_y1.weight f4 [256, 7]
0	0x3d6107b7	0.054938998
1	0xbd660108	-0.056153327
2	0xbe880e83	-0.26573572
3	0x3d133b86	0.035945438
4	0xbcf11487	-0.029428734
5	0x3cfe7c1d	0.031065041
6	0xbd0a5e44	-0.033781305
7	0x3c9c799d	0.019100958
8	0x3e008831	0.12551953
9	0x3da907c4	0.08253434
10	0xbc8c2d50	-0.01711145
11	0xbc7ec6ef	-0.015550359
12	0xbdcbe637	-0.09956019
13	0x3d065877	0.03279921
14	0x3de1c7b0	0.110244155
15	0xbd6d94a9	-0.0580031
16	0xbe1fd326	-0.1560789
17	0xbd325a8a	-0.043543376
18	0xbd1ac71b	-0.037787538
19	0xbd33f28e	-0.04393249
20	0xbdaadf77	-0.08343404
21	0x3df5d26a	0.12003024
22	0x3d966c18	0.07344836
23	0xbdc83c1a	-0.097770885
24	0xbd9117a7	-0.070845895
25	0xbc90677f	-0.017627476
26	0xbc03b35b	-0.008038367
27	0x3db70c3c	0.089378804
28	0xbf4261cd	-0.7593048
29	0xbecb011b	-0.3964928
30	0x3dbe920c	0.093052
31	0xbe32067e	-0.17385289
32	0xbd5b702a	-0.053573765
33	0x3f0f5ee5	0.5600417
34	0xbdea8383	-0.11450865
35	0xbcb89397	-0.022531314
36	0xbfa05c48	-1.2528162
37	0x3de119e5	0.10991267
38	0x3f1b47d6	0.6065649
39	0x3e83ac62	0.25717455
40	0x3e72e60f	0.23720573
41	0x3ebbc9ce	0.36677402
42	0xbfcebcc5	-1.6151358
43	0xbe963d23	-0.2934352
44	0xbf0c083f	-0.5470008
45	0x3eabce4c	0.3355583
46	0xbeecf9a8	-0.46284223
47	0x3e91df0f	0.28490493
48	0xbee33ca4	-0.44382203
49	0xbe5266f8	-0.20547092
50	0xbebe0365	-0.37111965
51	0xbe32722f	-0.1742637
52	0xbe63c53b	-0.22243206
53	0xbe698b49	-0.2280704
54	0xbc4bf833	-0.012449312
55	0xbd88ba66	-0.06676178
56	0xbdb341ba	-0.08752771
57	0x3cb6d0cf	0.022316365
58	0xbc155c13	-0.0091161905
59	0xbd16342e	-0.036670856
60	0x3dd49daf	0.10381638
61	0x3cd8b67d	0.026454205
62	0xbcf7e7cd	-0.030261898
63	0xbe9819c7	-0.29707167
64	0xbf07f33c	-0.5310552
65	0xbe0ad675	-0.13558371
66	0xbe00e07b	-0.12585633
67	0x3c88f3d7	0.016717834
68	0x3c28eb31	0.01030998
69	0xbe46c01c	-0.19409221
70	0xbdc88221	-0.09790445
71	0x3cf08959	0.029362367
72	0x3d9e0260	0.07715297
73	0xbe1931b8	-0.14960372
74	0x3da3e925	0.08003453
75	0xbe768f09	-0.24078001
76	0xbd4ff2c0	-0.050768614
77	0xbbe87f9a	-0.0070952894
78	0x3dc94913	0.09828391
79	0x3dcb25a9	0.099192925
80	0x3e1a408b	0.15063684
81	0xbde5d86f	-0.11222922
82	0xbd150917	-0.036385622
83	0x3d40b92b	0.04705159
84	0x3c343db5	0.01100104
85	0xbe1ddff9	-0.1541747
86	0x3d2570fa	0.040390946
87	0x3df20ead	0.118192054
88	0xbda182f4	-0.078863055
89	0x3ca8c7eb	0.02060314
90	0xbcfbbef8	-0.03073071
91	0xbd752560	-0.059850097
92	0x3d205706	0.039145492
93	0xbcc91bfe	-0.02454948
94	0xbd7ce0a2	-0.061737664
95	0x3da8f8bb	0.082505666
96	0x3dbb90b2	0.09158458
97	0xbddd943d	-0.1081929
98	0xbcddfa59	-0.027096914
99	0xbd8ab2d5	-0.06772391
100	0xbe38bfec	-0.18041962
101	0xbe38b8cf	-0.18039249
102	0x3ce60186	0.028076898
103	0xbda8c9b0	-0.08241594
104	0x3e20da10	0.15708184
105	0xbe020fd7	-0.12701355
106	0xc00f8144	-2.2422647
107	0x3d0f6f60	0.035018325
108	0xbf209ca0	-0.6273899
109	0xbd09a2dc	-0.03360258
110	0xbdb10e17	-0.086452655
111	0xbe2726ec	-0.16323441
112	0x3f7f9fdc	0.998533
113	0x3f079e9b	0.5297639
114	0x3c91ee5c	0.017813854
115	0xbf2d53ca	-0.67705977
116	0xbed6506e	-0.41858238
117	0x3ec15b41	0.37764934
118	0xbe02e7b4	-0.127837
119	0x3d4e0f8f	0.050307807
120	0x3db4da0d	0.088306524
121	0x3d0e49a9	0.034738217
122	0x3d7ea952	0.062173195
123	0xbd0c87c1	-0.034309153
124	0xbd764207	-0.060121562
125	0xbcb293b7	-0.021798952
126	0xbd34423a	-0.04400847
127	0x3dfaf643	0.12254002
128	0xbd980112	-0.07422079
129	0x3d0e6e2b	0.034773033
130	0x3d31158a	0.043233432
131	0x3df5c41d	0.12000296
132	0xbd260171	-0.04052872
133	0x3d5cf450	0.053943932
134	0xbd63b182	-0.055589207
135	0x3d32d616	0.0436612
136	0xbc0698bc	-0.008215126
137	0xbdc9adba	-0.09847589
138	0x3d4fe977	0.05075976
139	0xbd839927	-0.06425696
140	0xbe996073	-0.29956397
141	0xbe2ac052	-0.16674927
142	0xbde7f7be	-0.1132655
143	0xbe73d3fb	-0.23811333
144	0xbe51be8a	-0.20482841
145	0xbe07f727	-0.13277875
146	0x3e51fee9	0.20507397
147	0xbd61f8f0	-0.055169046
148	0x3c053a79	0.008131617
149	0xbddfa3f0	-0.109199405
150	0xbe27d623	-0.1639028
151	0xbe7ae37c	-0.24500841
152	0xbeaddf60	-0.33959484
153	0xbd94e421	-0.07270075
154	0xbc4c4189	-0.012466797
155	0xbed90e18	-0.42393565
156	0xbe167808	-0.14694226
157	0xbea0caf1	-0.31404832
158	0xbe510cd1	-0.20415045
159	0xbe74c543	-0.23903374
160	0xbe53a4e5	-0.20668371
161	0xbe068473	-0.13136463
162	0xbd004503	-0.031315815
163	0xbd3ec7ff	-0.04657745
164	0xbd9ea5a7	-0.077464394
165	0xbc7e94b5	-0.015538384
166	0x3e2e9ef7	0.17052828
167	0x3dce4b23	0.10072925
168	0x3dd09fa8	0.10186702
169	0xbca48997	-0.02008514
170	0xbd92066a	-0.0713013
171	0xbc97c15a	-0.018524814
172	0xbdcba746	-0.09944014
173	0xbe06663a	-0.13124934
174	0xbdd928c3	-0.10603478
175	0x3bc6e5b2	0.0060698623
176	0xbd7e8e1c	-0.062147245
177	0xbc1bc1e9	-0.009506681
178	0xbea76b5b	-0.32699093
179	0xbe2f39e9	-0.17111935
180	0xbddc81f4	-0.10766974
181	0x3b2def8a	0.0026540481
182	0xbcce910a	-0.025215644
183	0xbd8661e1	-0.06561638
184	0xbd9d876b	-0.076918446
185	0x3cb12807	0.021625532
186	0x3dc3bd17	0.095575504
187	0xbe14cf9c	-0.14532322
188	0xbddda1eb	-0.10821899
189	0x3d8c3f27	0.06847983
190	0xbe908d3b	-0.2823275
191	0xbe1b4bd2	-0.15165642
192	0x3e000292	0.1250098
193	0xbd946c25	-0.072471894
194	0xbe27be76	-0.16381249
195	0xbd6226f5	-0.055212934
196	0xbeb9dd65	-0.36301723
197	0xbe052cd7	-0.13005386
198	0xbe5d44e6	-0.21608314
199	0xbd5df867	-0.054191973
200	0xbe39c8ed	-0.18143053
201	0xbe8303a0	-0.25588703
202	0xbe2006f4	-0.15627652
203	0xbd142c23	-0.036174905
204	0xbc35702d	-0.011074108
205	0xbdd420eb	-0.10357841
206	0xbde37d5f	-0.11107897
207	0xbe3383b1	-0.17530705
208	0x3ce6faec	0.02819582
209	0x3c925939	0.01786481
210	0xbe502422	-0.20326284
211	0xbd627430	-0.055286586
212	0xbc4d74bd	-0.01254004
213	0x3ce82265	0.028336713
214	0xbd2ec187	-0.04266503
215	0x3da7b71a	0.08189221
216	0xbe3c87eb	-0.18411224
217	0xbdbb156c	-0.09134945
218	0x3e003331	0.12519528
219	0x3d20775b	0.039176326
220	0xbda0e50b	-0.078561865
221	0xbd279c3b	-0.040920477
222	0xbdb1e04e	-0.08685361
223	0xbdbf02db	-0.093267165
224	0xbf007bc9	-0.5018888
225	0xbc4bc2fc	-0.012436625
226	0xbec15886	-0.3776285
227	0xbf423705	-0.75865203
228	0xbe90fa1d	-0.2831582
229	0xbefe165c	-0.49626434
230	0x3eb4a75d	0.35283938
231	0xbe3e3cf8	-0.18577945
232	0xbef7eb0c	-0.48421514
233	0xbd9fb7c7	-0.077987246
234	0xbe31f4b6	-0.17378506
235	0xbe125772	-0.1429117
236	0xbda626c6	-0.08112864
237	0x39ba7c99	0.00035569517
238	0xbe02abee	-0.12760898
239	0xbe2372b6	-0.15961727
240	0x3d6b04bf	0.057377573
241	0xbd8aadae	-0.06771408
242	0xbe3b144d	-0.18269463
243	0x3dd82560	0.10554004
244	0x3dca46f7	0.09876817
245	0xbd4ab2e8	-0.049487025
246	0xbf99ce76	-1.2016132
247	0xbefafd88	-0.49021554
248	0x3f2f34d9	0.68440014
249	0x3da12817	0.07868975
250	0xbea5a97b	-0.32355866
251	0x3ed59951	0.41718534
252	0x3ead7c4a	0.33883888
253	0xbfc287bd	-1.5197674
254	0xbce5c47d	-0.028047794
255	0xbf846f2c	-1.0346427

in_to_y1.bias f4 [256]
0	0xbe8c6bf4	-0.27426112
1	0xbe86e593	-0.26347026
2	0xbc074fe8	-0.008258797
3	0xbe6e3c3a	-0.23265162
4	0x3e94b1a6	0.29041785
5	0x3da413dc	0.080116004
6	0x3e627702	0.2211571
7	0x3e23dd84	0.1600247
8	0xbeb911bf	-0.36146352
9	0x3e48f4ce	0.19624636
10	0xbd702fdb	-0.05863939
11	0xbea2b676	-0.31779832
12	0xbe5b94e0	-0.2144351
13	0xbe3c58ed	-0.18393297
14	0xbdb41b91	-0.087943204
15	0x3e12352d	0.14278097
16	0x3cc068f6	0.02348755
17	0xbea712b5	-0.3263146
18	0xbe9093d4	-0.28237784
19	0xbe9b346e	-0.30313438
20	0x3dbcc805	0.09217838
21	0x3e1d5d66	0.1536766
22	0x3e356b7d	0.17716785
23	0xbe931008	-0.28723168
24	0xbda985f4	-0.08277503
25	0x3d9560a8	0.07293826
26	0xbdb0f8dc	-0.08641216
27	0xbddd112f	-0.10794293
28	0x3e1a0492	0.15040806
29	0xbcc56eec	-0.024100743
30	0xbe824fd0	-0.25451517
31	0xbe35b1d5	-0.17743619
32	0x3dfcc87a	0.12342925
33	0x3dde2ac8	0.108480036
34	0xbe59e9c9	-0.21280588
35	0x3acaf926	0.0015485629
36	0xbc8c535c	-0.017129593
37	0x3ea315c8	0.31852555
38	0x3ea1ae79	0.31578425
39	0xbeb3de06	-0.35130328
40	0x3ea2ffc8	0.3183577
41	0x3d56ebaf	0.05247086
42	0xbde787aa	-0.11305173
43	0x3cb5e260	0.02220267
44	0x3e587949	0.21140017
45	0xbdc2eebe	-0.09518193
46	0x3c28f0a1	0.010311277
47	0x3b9935be	0.004675596
48	0xbda81e32	-0.08208884
49	0xbe03218a	-0.12805763
50	0xbe901fdf	-0.28149316
51	0xbe896f36	-0.2684266
52	0x3e024e7a	0.12725249
53	0xbe5410e2	-0.20709565
54	0xbe365c66	-0.17808685
55	0x3d1711d4	0.036882237
56	0x3c697008	0.014247902
57	0xbdca88a0	-0.098893404
58	0x3e35606d	0.17712565
59	0xbe62a789	-0.22134222
60	0xbd4efab1	-0.050532047
61	0xbe85ed25	-0.2615749
62	0x3e0aedc1	0.13567258
63	0xbe246b39	-0.16056527
64	0x3cdf6104	0.02726794
65	0x3d0aa67b	0.033850174
66	0xbe51495e	-0.20438144
67	0xbe770f5e	-0.24126956
68	0x3e086397	0.1331924
69	0xbe8f73c2	-0.28018004
70	0xbe4ca776	-0.19985756
71	0x3df82c24	0.12117794
72	0xbbee5600	-0.0072734356
73	0x3e78a2b0	0.2428081
74	0x3e16bc4b	0.14720266
75	0xbd925ec0	-0.071469784
76	0xbe1369a6	-0.1439577
77	0xbe2d40cc	-0.1691925
78	0xbe7e216e	-0.2481744
79	0x3e92a1c0	0.2863903
80	0xbe62e191	-0.2215636
81	0x3cbf51f0	0.0233545
82	0xbe87ee08	-0.2654879
83	0xbebc7b9e	-0.36813062
84	0xbecf11fe	-0.40443414
85	0xbd7086ce	-0.05872231
86	0x3dcb57a8	0.099288285
87	0x3da56da3	0.08077552
88	0xbe29975f	-0.1656165
89	0x3c8f0046	0.017456185
90	0xbcae3579	-0.021265732
91	0xbe6d5e54	-0.23180515
92	0xbe7441fb	-0.23853295
93	0x3da7274a	0.08161791
94	0xbe8690f4	-0.26282465
95	0xbe10ea21	-0.14151813
96	0xbd6b90a8	-0.057511
97	0x3e169c44	0.14708048
98	0xbda484bc	-0.080331296
99	0xbdd264ec	-0.102731556
100	0x3d47c5eb	0.048772734
101	0xbe9638fe	-0.29340357
102	0xbdc22068	-0.09478837
103	0xbe34252e	-0.17592308
104	0xbd38b018	-0.04508981
105	0xbe174ee0	-0.14776182
106	0xbe4c3685	-0.19942673
107	0xbe3e76c3	-0.18599992
108	0x3b91f4cd	0.0044542314
109	0xbeb87e86	-0.3603403
110	0xbd8783be	-0.06616925
111	0x3e445a50	0.19175076
112	0xbe7cbf50	-0.24682355
113	0x3d828f8c	0.06375036
114	0x3c1fad42	0.009745898
115	0x3e4d75cc	0.20064467
116	0x3c81a4ba	0.015825618
117	0xbee81cb1	-0.4533439
118	0x3ecf9ceb	0.40549406
119	0xbef381ef	-0.4756007
120	0x3e92b5cc	0.28654325
121	0xbd3fa756	-0.046790443
122	0x3db49bfb	0.088188134
123	0x3e35b3a3	0.17744307
124	0xbe884d20	-0.26621342
125	0x3d9aeb1e	0.07564376
126	0xbd898869	-0.06715471
127	0xbdb7793b	-0.0895867
128	0x3eb6a800	0.3567505
129	0x3e5102bc	0.204112
130	0xbeb5acf5	-0.35483518
131	0x3e0d458c	0.13796061
132	0xbe6de456	-0.23231634
133	0xbe2c68f7	-0.16836916
134	0xbe5ca301	-0.21546556
135	0x3e35f720	0.17770052
136	0xbe2a89f5	-0.16654189
137	0xbea2efee	-0.31823677
138	0x3e31e626	0.17372951
139	0x3d2b32b6	0.04179641
140	0x3d9eff54	0.07763544
141	0xbdc630c4	-0.0967727
142	0x3c2ad6c1	0.010427178
143	0xbd790b18	-0.060801595
144	0xbe9b85de	-0.3037557
145	0x3e496948	0.19669068
146	0xbe948689	-0.29008892
147	0xbe24c6e4	-0.16091496
148	0xbd60e59e	-0.05490648
149	0x3eef8c60	0.46786785
150	0xbc05f378	-0.008175723
151	0xbe0568c0	-0.1302824
152	0x3e435de8	0.19078791
153	0x3dbd2909	0.092363425
154	0xbbc7cb33	-0.0060972213
155	0x3e4cef4f	0.20013164
156	0xbe2821b2	-0.16419104
157	0x3e01496a	0.12625661
158	0xbd66281c	-0.056190595
159	0x3e0ab7f5	0.13546737
160	0x3df12260	0.11774135
161	0x3e2a94d1	0.16658331
162	0x3e83a5ec	0.25712526
163	0xbc098850	-0.008394316
164	0x3ea09526	0.3136379
165	0xbe94e3f5	-0.29080167
166	0x3e5e1a2f	0.21689676
167	0x3d3b5918	0.045739263
168	0x3d4b4ec8	0.04963568
169	0x3d2c9a20	0.042139173
170	0xbe85caec	-0.2613138
171	0x3df19d0d	0.11797533
172	0x3c6a28d1	0.014291958
173	0xbeb17ce0	-0.34665585
174	0xbe0008ba	-0.12503329
175	0xbdef94cd	-0.11698303
176	0xbd8bddc9	-0.068294115
177	0xbe442835	-0.19155963
178	0x3e15cac7	0.14628135
179	0xbd9e9895	-0.077439465
180	0xbe5e8652	-0.21730927
181	0xbeae9db6	-0.341047
182	0x3dfc92e0	0.12332702
183	0x3e5038cd	0.20334168
184	0x3d6b91e1	0.057512168
185	0xbd5a4a83	-0.053293716
186	0xbeb6f358	-0.35732532
187	0xbda70dfc	-0.08156964
188	0x3dbdfa1b	0.092762195
189	0x3de0b8d3	0.109727524
190	0xbe946c30	-0.2898879
191	0x3cc4f544	0.024042733
192	0xbcaea001	-0.02131653
193	0xbea9d1e4	-0.33167946
194	0xbe24ad15	-0.1608165
195	0x3dc9e377	0.098578386
196	0x3b5d89c5	0.003380404
197	0xbcc7cf43	-0.024390822
198	0x3a07b222	0.0005176385
199	0x3e265049	0.16241564
200	0xbe1f3d01	-0.15550615
201	0xbebd2e50	-0.36949396
202	0xbe276ed3	-0.1635087
203	0xbe62a456	-0.22133002
204	0x3e52d424	0.20588738
205	0x3dd7bda5	0.10534219
206	0x3e253048	0.16131699
207	0xbe9f1138	-0.31067824
208	0xbe8ba53a	-0.27274495
209	0xbe3725b9	-0.17885484
210	0x3dea584b	0.11442622
211	0xbe5d7b07	-0.21628962
212	0x3de24166	0.1104763
213	0xbe68cb8c	-0.22733897
214	0x3cdef944	0.027218468
215	0x3b95e9fc	0.0045750123
216	0xbe8acde8	-0.2711022
217	0xbdd31aac	-0.10307822
218	0x3eb3dec7	0.35130903
219	0xbdcd7608	-0.10032278
220	0x3daa6682	0.08320333
221	0xbe8537ae	-0.26019043
222	0x3dee162a	0.11625321
223	0x3d8b2d36	0.06795733
224	0xbda5ea92	-0.08101381
225	0xbdbdb89f	-0.09263729
226	0x3dbdb50e	0.09263049
227	0xbe9eaa6a	-0.3098939
228	0x3bf3167f	0.007418453
229	0x3da012b3	0.078160666
230	0xbe7f43b2	-0.24928167
231	0xbe3b15ef	-0.18270086
232	0xbe72795d	-0.23679109
233	0x3e7adc34	0.24498063
234	0xbea742c9	-0.3266814
235	0x3e348473	0.1762865
236	0xbc288c60	-0.010287374
237	0x3e54b91b	0.20773737
238	0x3debcae6	0.11513309
239	0xbe7727da	-0.24136296
240	0x3df67d7c	0.12035653
241	0x3e4a18dd	0.19736047
242	0xbe53e351	-0.20692183
243	0x3e134bb6	0.1438435
244	0xbe5c5725	-0.21517618
245	0x3e48899e	0.19583747
246	0x3e2cbb4f	0.16868328
247	0xbe13858b	-0.14406411
248	0xbea705b9	-0.32621554
249	0x3e12f957	0.14352928
250	0xbeb4f25e	-0.3534116
251	0xbe335a94	-0.17515022
252	0x3d56d9d7	0.052453842
253	0xbee6cf2e	-0.4507994
254	0xbeb5d461	-0.35513595
255	0x3e292589	0.16518225

y1_to_y2.weight f4 [256, 256]
0	0x3e3d1530	0.18465114
1	0xbd903b72	-0.07042588
2	0xbcf30b4b	-0.02966847
3	0xbb530240	-0.0032197386
4	0xbd8e1e2e	-0.0693935
5	0xbe05c8b6	-0.13064846
6	0xbbdd5497	-0.0067544687
7	0x3d5de27e	0.054171078
8	0xbdd8b365	-0.10581092
9	0xbdf57927	-0.119859986
10	0x3d6b101d	0.057388414
11	0xbd7a08ad	-0.06104343
12	0xbda2fa63	-0.07957914
13	0xbdd13d97	-0.102168255
14	0x3d2155c1	0.039388422
15	0x3d8c2dbe	0.06844662
16	0x3b6d7e26	0.003623852
17	0xbe15e9a8	-0.14639914
18	0xbe2bbf47	-0.16772185
19	0xbc930397	-0.017946048
20	0xbc9fcbd3	-0.01950637
21	0xbe1048c8	-0.14090264
22	0xbdb7dbdb	-0.08977481
23	0xbdbbb96f	-0.09166228
24	0xbcee469f	-0.02908641
25	0xbc795e22	-0.015220197
26	0xbb424241	-0.0029641541
27	0x3e2bfedc	0.1679644
28	0x3e582e49	0.21111406
29	0x3e7ffddf	0.24999188
30	0x3dc0dc5f	0.094170325
31	0x3ec128fa	0.37726575
32	0xbde1ff0e	-0.11034976
33	0xbce6e945	-0.028187403
34	0xbdc5c6c3	-0.096570514
35	0xbb940aed	-0.004517904
36	0xbdbb991f	-0.09160065
37	0xbd28982c	-0.041160747
38	0x3e29d5c8	0.16585457
39	0x3d97afa3	0.07406547
40	0xbb2b21e7	-0.0026112737
41	0xbc29b10b	-0.010357152
42	0x3dfe2a35	0.12410394
43	0xbd5051fb	-0.050859433
44	0xbd5698ee	-0.05239194
45	0xbaa2fa1b	-0.0012434156
46	0xbd4c3dc7	-0.049863603
47	0x3d4787e8	0.048713595
48	0xbd12c07f	-0.03582811
49	0xbda4458b	-0.08021077
50	0x3e2fb6db	0.17159598
51	0x3e0dcf20	0.13848543
52	0xbe022d8f	-0.12712692
53	0x3dd89f93	0.10577311
54	0x3cc9fbe5	0.024656245
55	0xbe935c6f	-0.2878146
56	0xbc5b698d	-0.0133918645
57	0xbdb3a283	-0.08771231
58	0xbd46d059	-0.04853854
59	0x3d6d1e93	0.057890486
60	0xbd7f00f0	-0.062256753
61	0xbe7eed16	-0.24895129
62	0xbda23cdb	-0.079217635
63	0x3e21f145	0.15814693
64	0xbe7bb0de	-0.24579188
65	0x3e0afac8	0.13572228
66	0xbd7feea1	-0.062483434
67	0x3db7b4e4	0.08970049
68	0xbd00cb38	-0.031443805
69	0xbdaf140f	-0.08548748
70	0x3c127475	0.008938898
71	0x3c95a050	0.01826492
72	0xbdcbb173	-0.09945955
73	0xbc9e80f9	-0.019348608
74	0xbca79f52	-0.020461712
75	0x3d1018ba	0.03517983
76	0xbc020527	-0.007935799
77	0xbdc0108b	-0.09378155
78	0xbe5e4003	-0.21704106
79	0xbebbbde0	-0.366683
80	0xbe1d82c4	-0.15381914
81	0x3d3257ea	0.043540873
82	0x3c840dd3	0.016119873
83	0x3daae62b	0.08344682
84	0xbdc7a49c	-0.097481936
85	0x3ca4db07	0.020123972
86	0x3e0344a3	0.12819152
87	0xbe4140d0	-0.1887238
88	0x3d0f971a	0.03505621
89	0x3dcc5890	0.099778295
90	0xbd8cf956	-0.068834946
91	0x3dc4ebab	0.096152626
92	0xbe01a98d	-0.12662335
93	0xbdfa91f7	-0.12234872
94	0xbdfd915a	-0.12381239
95	0x3db042e2	0.08606507
96	0x3d663815	0.056205828
97	0xbdc66c1b	-0.09688588
98	0x3cd97700	0.026546001
99	0xbe8d4ddb	-0.27598462
100	0x3d74875a	0.059699394
101	0xbd3ca1eb	-0.046052855
102	0xbcfe9c5d	-0.03108042
103	0xbe484839	-0.19558801
104	0x3ce7baca	0.02828731
105	0x3e35428f	0.17701171
106	0xbc8ae691	-0.016955646
107	0xbc7436e7	-0.014905668
108	0x3d6e1027	0.058120873
109	0x3d8dd726	0.06925802
110	0x3d8664ed	0.06562219
111	0x3c2a9dc2	0.010413589
112	0xbce422df	-0.02784866
113	0xbc8d00bf	-0.01721227
114	0xbd5d693d	-0.05405544
115	0xbd525f5b	-0.05136047
116	0xbbecc3e9	-0.0072255027
117	0xbe929767	-0.28631136
118	0xbb94c38a	-0.0045399116
119	0xbe05b723	-0.13058142
120	0xbd5576e7	-0.052115347
121	0xbd5c9dc7	-0.053861406
122	0x3d7d6e5b	0.06187282
123	0xbce95107	-0.02848102
124	0xbddccb17	-0.10780924
125	0xbe07ccbf	-0.13261698
126	0x3e349188	0.17633641
127	0xbd87cffe	-0.06631468
128	0xbe44460b	-0.19167344
129	0x3ddbddcf	0.10735666
130	0xbdd9d7ab	-0.106368385
131	0x3d842b67	0.06453591
132	0xbd3a8c49	-0.045543943
133	0xbde20b20	-0.11037278
134	0x3dcc4663	0.09974363
135	0xbd66647f	-0.056248184
136	0xbe13a6e1	-0.14419128
137	0x3a5dff2b	0.0008468504
138	0xbdaee572	-0.08539857
139	0x3e24af74	0.16082555
140	0xbdb821d3	-0.089908265
141	0xbce7375a	-0.028224636
142	0xbdfc7612	-0.123272076
143	0x3d66cabd	0.05634569
144	0xbe3f14db	-0.186603
145	0x3d3bdcc1	0.045864824
146	0x3d1a60b9	0.0376899
147	0xbccb248d	-0.024797702
148	0xbd58fa1f	-0.05297291
149	0x3d0d561b	0.034505945
150	0x3d45dcd3	0.048306298
151	0x3d9e0643	0.07716038
152	0x3cdab3de	0.026697095
153	0xbbf35a26	-0.007426518
154	0x3de3dd6b	0.111262165
155	0x3d90ebe2	0.07076241
156	0xbd0a4d7b	-0.033765297
157	0xbd44276d	-0.04788916
158	0xbda4a309	-0.08038909
159	0x3df52ff7	0.11972039
160	0xbb38b82f	-0.0028185954
161	0xbe9cef1b	-0.30651173
162	0x3cfee95d	0.031117136
163	0x3d071970	0.032983243
164	0xbbfbb8fe	-0.007681965
165	0x3dfbbb05	0.122915305
166	0x3d811cb3	0.06304302
167	0x3e34019d	0.1757874
168	0x3e06e421	0.13172962
169	0xbdcf77da	-0.10130282
170	0x3c9e0629	0.019290047
171	0xbdeadc52	-0.11467804
172	0xbd1ab3a7	-0.037768986
173	0xbe24c91b	-0.1609234
174	0x3dba0b75	0.090842165
175	0x3bb0669d	0.005383326
176	0xbbdb6520	-0.0066954046
177	0xbd3c80c3	-0.046021234
178	0xbd549e33	-0.051908683
179	0x3d0d5c41	0.03451181
180	0x3d91b057	0.07113712
181	0xbc158241	-0.009125293
182	0x3d0791ee	0.033098154
183	0xbd8ccf57	-0.068754844
184	0xbd7eaddb	-0.06217752
185	0xbab4d900	-0.0013797581
186	0xbdac4d5f	-0.08413195
187	0xbe5d67d3	-0.21621637
188	0xbd477dbc	-0.048703894
189	0xbd729abd	-0.0592296
190	0x3e0d462b	0.13796298
191	0x3d024b2c	0.03180997
192	0xbce949b5	-0.028477529
193	0x3c038918	0.008028291
194	0x3e10b6d5	0.14132245
195	0xbe421ae5	-0.18955572
196	0xbe1922c0	-0.14954662
197	0x3e300bed	0.1719205
198	0xbdaae245	-0.08343939
199	0xbab2dcd8	-0.0013646139
200	0x3e8710ea	0.26380092
201	0xbe0c248e	-0.1368582
202	0xbcb112c9	-0.021615403
203	0xbe33c0a5	-0.17553957
204	0x3e685b6c	0.22691125
205	0x3d08d168	0.03340283
206	0x3d269dff	0.04067802
207	0x3d9ecfdf	0.07754492
208	0x3e4989d3	0.19681482
209	0xbc898dd1	-0.016791256
210	0xbde44120	-0.11145234
211	0x3d189997	0.03725585
212	0x3d8f445d	0.06995461
213	0xbd2b39b7	-0.041803088
214	0xbcbe0c72	-0.023199294
215	0xbe063a59	-0.13108195
216	0x3e2cc9a7	0.168738
217	0xbe68461e	-0.22682998
218	0xbe4914e6	-0.19636878
219	0xbcd1d6ba	-0.025615085
220	0xbd2d119f	-0.042253133
221	0xbd6769c5	-0.056497354
222	0xbdfaa7b5	-0.12239019
223	0xbe07aa0d	-0.13248463
224	0xbc120d38	-0.008914284
225	0x3e0b41dd	0.13599344
226	0x3da4db0f	0.080495946
227	0x3e3d10b0	0.18463397
228	0x3d8af79b	0.06785508
229	0x3bd18d04	0.006394984
230	0xbcaa6703	-0.020801073
231	0xbd926d91	-0.071498044
232	0xbe010dba	-0.12602893
233	0x3d80f39e	0.06296466
234	0x3cbb38eb	0.022854289
235	0x3aa753fd	0.0012766119
236	0x3dbeded8	0.09319848
237	0xbdce8fc6	-0.10086016
238	0x3e2a952c	0.16658467
239	0xbda28d0e	-0.0793706
240	0xbe1c6bbe	-0.15275475
241	0xbd9699a7	-0.073535256
242	0x3c979747	0.018504752
243	0xbdbe1dbc	-0.09283015
244	0xbd40de43	-0.047086965
245	0xbdc609c0	-0.096698284
246	0x3d75b7ed	0.05998986
247	0x3e5c2e82	0.21502116
248	0x3e1c7531	0.1527908
249	0xbbd44375	-0.006477768
250	0xbe116fdc	-0.14202827
251	0xbe469a36	-0.19394764
252	0xbdfc0182	-0.12304975
253	0xbe09f0e2	-0.13470796
254	0x3c2fe269	0.010735133
255	0xbe0f2028	-0.1397711

y1_to_y2.bias f4 [256]
0	0xbe062084	-0.13098341
1	0x3e2aa32f	0.16663812
2	0x3eaa9da9	0.3332341
3	0xbd2865c8	-0.04111269
4	0xbe12f48d	-0.14351101
5	0xbeb3ad97	-0.35093376
6	0x3e80b306	0.25136584
7	0xbc277409	-0.010220536
8	0xbe12401d	-0.1428227
9	0xbec27f2f	-0.37987658
10	0xbe5d51fa	-0.21613303
11	0xbeef1b2b	-0.46700415
12	0xbe355946	-0.17709836
13	0x3e198afc	0.14994425
14	0x3ac92e0f	0.001534881
15	0xbe5135d9	-0.20430698
16	0xbdddcfdc	-0.10830662
17	0xbe8af2b5	-0.27138296
18	0xbef8843b	-0.48538384
19	0xbeca0b61	-0.39461806
20	0xbdb0d53b	-0.086344205
21	0xbe2bd5d1	-0.16780783
22	0x3e871087	0.26379797
23	0xbe223aab	-0.15842693
24	0xbda28e3c	-0.07937285
25	0xbe3444ee	-0.1760442
26	0x3d6faf1c	0.058516607
27	0xbd43cc69	-0.047802363
28	0x3da5b3d7	0.08090942
29	0xbddf6e80	-0.10909748
30	0xbe15601e	-0.14587447
31	0xbde8aefa	-0.11361499
32	0xbe110939	-0.14163674
33	0xbe934872	-0.2876621
34	0xbd90deb5	-0.07073728
35	0xbd90b737	-0.070661955
36	0xbe06ec16	-0.13175997
37	0xbe31895d	-0.17337556
38	0xbdd7f2f6	-0.10544388
39	0xbd84928d	-0.06473265
40	0xbdfd6dfe	-0.12374495
41	0x3e052ebd	0.1300611
42	0xbe2f0741	-0.17092611
43	0xbdfdf020	-0.12399316
44	0xbde97329	-0.11398918
45	0xbe2f2d21	-0.17107059
46	0xbd266f26	-0.040633343
47	0xbdf61fa9	-0.120177574
48	0xbd7fce87	-0.06245282
49	0xbd8af888	-0.06785685
50	0xbdf10e9b	-0.11770364
51	0xbe38f336	-0.18061528
52	0xbeca0683	-0.39458093
53	0xbe199158	-0.1499685
54	0xbdc00321	-0.09375597
55	0xbd4f3d5b	-0.050595623
56	0xbdc832d8	-0.09775323
57	0x3eb0d17e	0.3453483
58	0xbdabe627	-0.083935075
59	0xbf31f7e5	-0.6951888
60	0xbda8b354	-0.08237329
61	0xbdccadfe	-0.09994124
62	0xbe1e7b63	-0.15476756
63	0xbefee340	-0.49782753
64	0xbe4cd9a2	-0.20004895
65	0xbef8212e	-0.48462814
66	0xbdb34dc0	-0.08755064
67	0x3b11a977	0.0022226253
68	0xbde75517	-0.112955265
69	0xbe08b7ab	-0.13351314
70	0xbe0b7574	-0.13619024
71	0xbcfe4981	-0.031040909
72	0xbdea90a2	-0.11453368
73	0xbe9741cd	-0.2954239
74	0x3e81e632	0.25370938
75	0xbe6b53cd	-0.22981186
76	0xbe08a8ad	-0.13345595
77	0xbe26d1d2	-0.16290978
78	0xbd99a7bf	-0.07502698
79	0xbe22418c	-0.15845317
80	0xbe6d0018	-0.23144567
81	0xbe40a130	-0.18811488
82	0xbd453932	-0.04815025
83	0xbe8177d3	-0.2528673
84	0xbdbb0ecd	-0.091336824
85	0xbdd7e82e	-0.10542332
86	0xbe575767	-0.21029435
87	0xbe029390	-0.12751603
88	0xbe148d32	-0.14506987
89	0x3f07736d	0.529105
90	0xbe1cbb27	-0.15305768
91	0x3ddd126d	0.1079453
92	0x3f5da796	0.8658384
93	0x3e4456a6	0.19173679
94	0x3c0ef950	0.008726433
95	0x3e3cc16d	0.18433161
96	0xbdffbaa9	-0.124867745
97	0xbdb3cffe	-0.08779906
98	0xbd8d2f76	-0.06893818
99	0xbedfea63	-0.4373351
100	0xbda3fb47	-0.08006912
101	0xbe36f2ec	-0.17866105
102	0xbe203523	-0.1564527
103	0x3eb9e0a1	0.3630419
104	0xbe0c37fc	-0.13693231
105	0xbe34788c	-0.1762411
106	0xbe10fc7a	-0.14158812
107	0xbef6a9e4	-0.4817649
108	0xbd9cdeee	-0.07659708
109	0xbe26cb66	-0.16288528
110	0xbdd30ef1	-0.10305584
111	0xbda64a72	-0.08119668
112	0xbdc8eb8d	-0.09810553
113	0xbe461307	-0.19343196
114	0xbdd4f19c	-0.10397646
115	0x3bc1ce60	0.0059144944
116	0xbe8b5ce8	-0.2721932
117	0xbe2bdba0	-0.16782999
118	0xbdce98ec	-0.10087761
119	0xbf4b47cf	-0.79406446
120	0xbf2d4d74	-0.6769631
121	0x3f2d05c8	0.67586946
122	0xbf27dab6	-0.655681
123	0xbe100ef4	-0.14068204
124	0xbe76cccc	-0.24101561
125	0xbd4d8eb4	-0.05018492
126	0xbeffc780	-0.49956894
127	0xbdbb17c0	-0.09135389
128	0xbf0a8e16	-0.54123056
129	0x3de66b76	0.11250965
130	0x3d1b341f	0.037891503
131	0xbdfdcbb8	-0.12392372
132	0xbdf02069	-0.11724932
133	0xbdfd73b4	-0.12375584
134	0x3e913c67	0.28366396
135	0xbe0c3155	-0.13690694
136	0x3f0ae1d8	0.5425086
137	0xbd14eb30	-0.036357105
138	0xbdf6fe6c	-0.12060246
139	0x3e67a40d	0.22621174
140	0xbcb2ac73	-0.021810746
141	0xbdafa448	-0.08576256
142	0xbeafe200	-0.34352112
143	0xbd10d0af	-0.035355266
144	0x3d301a83	0.042994034
145	0xbd8025d2	-0.06257214
146	0xbd8ff652	-0.07029404
147	0xbe0d8938	-0.13821876
148	0xbf26ba62	-0.6512815
149	0xbda0b677	-0.078473024
150	0x3bf055c2	0.007334442
151	0xbe615765	-0.22005995
152	0xbecc9592	-0.39957863
153	0x3f4023e3	0.7505476
154	0xbe103943	-0.14084344
155	0xbeb24ba7	-0.34823343
156	0xbdc753d8	-0.09732789
157	0x3caa8e29	0.02081974
158	0x3e2e9d2b	0.17052142
159	0x3e18076b	0.1484658
160	0xbd911ebd	-0.07085941
161	0xbde39a94	-0.11113468
162	0x3db15847	0.08659416
163	0xbe77d70e	-0.2420313
164	0xbd23feda	-0.040037967
165	0x3e9635f4	0.29338038
166	0x3f463205	0.77420074
167	0xbdd29d00	-0.102838516
168	0x3e224322	0.15845922
169	0xbea7992c	-0.32734048
170	0xbd0e78f5	-0.034783322
171	0xbdacca2c	-0.08436999
172	0xbd238651	-0.039923016
173	0xbe8e7768	-0.27825475
174	0xbdddf824	-0.10838345
175	0xbe7e07d1	-0.24807669
176	0x3e50707e	0.20355412
177	0x3c4b57a9	0.0124110365
178	0x3e80fd35	0.25193182
179	0xbd6d8a90	-0.05799347
180	0xbdac4a75	-0.08412639
181	0xbd7a156b	-0.061055582
182	0xbd75b554	-0.05998738
183	0xbe2a251d	-0.1661572
184	0x3d55548c	0.052082583
185	0xbda5077e	-0.0805807
186	0xbe74aec8	-0.23894799
187	0xbe6c9674	-0.23104268
188	0xbe05329d	-0.13007589
189	0xbd90c6cb	-0.07069167
190	0xbdf22a91	-0.11824525
191	0xbd0f7359	-0.035022113
192	0xbdc46168	-0.09588891
193	0xbe9e7544	-0.30948842
194	0xbdea26af	-0.114331596
195	0x3e9d1971	0.30683473
196	0x3d9d4552	0.076792374
197	0xbd98bf66	-0.07458381
198	0xbf08a3e6	-0.5337509
199	0xbe0f9be0	-0.14024305
200	0xbe546ce4	-0.20744663
201	0x3d37dd7e	0.044888966
202	0x3b338d6b	0.0027397524
203	0xbe7c234f	-0.24622844
204	0xbf0b0613	-0.54306144
205	0xbe187591	-0.14888598
206	0xbf1937cf	-0.5985078
207	0x3f252cca	0.6452147
208	0x3d73bc09	0.059505496
209	0xbdb211fd	-0.08694837
210	0xbda3fd33	-0.08007278
211	0xbe575957	-0.21030174
212	0xbd66fc93	-0.056393217
213	0x3f4ca161	0.79933745
214	0xbda1baf2	-0.07896985
215	0x3e0b2f14	0.13592178
216	0xbf18a944	-0.5963328
217	0xbe02e330	-0.12781978
218	0xbe1710f4	-0.14752561
219	0xbe19083b	-0.14944546
220	0xbd3b473a	-0.045722224
221	0xbdd13ebf	-0.10217046
222	0xbe313093	-0.17303686
223	0xbe47a2ef	-0.19495748
224	0xbdffd158	-0.12491101
225	0xbdd45a22	-0.10368754
226	0xbedcec70	-0.43149137
227	0xbd93ee43	-0.07223179
228	0xbe67f7f3	-0.22653179
229	0xbda9b8af	-0.08287179
230	0x3f22176a	0.6331698
231	0xbe4e2510	-0.20131326
232	0x3d1490fe	0.036271088
233	0x3cd5ba33	0.026089763
234	0xbeeeebe8	-0.46664357
235	0xbd59ef5e	-0.053206794
236	0xbea1c165	-0.3159286
237	0xbdc9bd91	-0.0985061
238	0xbe24fa7c	-0.16111177
239	0xbca04841	-0.019565703
240	0xbe0c91eb	-0.13727538
241	0xbdc48d15	-0.09597222
242	0x3e893570	0.26798582
243	0xbe0ccc45	-0.13749798
244	0x3e36f50c	0.17866915
245	0xbdee8d8a	-0.1164809
246	0xbda94b03	-0.082662605
247	0xbd7c6728	-0.061621815
248	0xbe6a685b	-0.22891371
249	0x3e7ae921	0.24502994
250	0x3e1877fb	0.14889519
251	0xbeda2f92	-0.42614418
252	0x3e425f99	0.1898178
253	0xbe76afe0	-0.24090528
254	0xbdc0ccb8	-0.09414047
255	0xbe64e9b0	-0.2235477

out.weight f4 [2, 256]
0	0x3c8f0fa6	0.017463516
1	0xc003d096	-2.059606
2	0xbfd98601	-1.699402
3	0xc02c2e5a	-2.690329
4	0x3d559c66	0.052151106
5	0x3f53e062	0.82764256
6	0xbe4a6eea	-0.19768873
7	0xbd237118	-0.039902776
8	0xbafcdc09	-0.001929165
9	0x3e582485	0.21107681
10	0x3f86acd3	1.0521492
11	0xc00a4bf4	-2.1608858
12	0x3d446184	0.04794456
13	0xbfb13276	-1.3843524
14	0x3f45adac	0.7721813
15	0xbf8c938e	-1.098253
16	0x3e0388c2	0.12845138
17	0xbf1ec751	-0.6202288
18	0xbe96c9c9	-0.29450825
19	0xbf029ff7	-0.51025337
20	0xbe78eb5b	-0.24308531
21	0xbcdaed6c	-0.02672454
22	0xbf792852	-0.9732715
23	0x3ce95445	0.028482566
24	0x3c9b1d37	0.01893483
25	0x3dbee930	0.09321821
26	0xc004b80c	-2.0737333
27	0x3b324c77	0.002720622
28	0x3e63fa9c	0.22263569
29	0x3db20fff	0.08694457
30	0xbd78cc21	-0.060741547
31	0x3c40cd38	0.011767678
32	0xbff10c3b	-1.8831857
33	0xbd4d9bff	-0.050197598
34	0x3f930095	1.1484553
35	0x3e1196e9	0.14217724
36	0x3e2741b6	0.1633366
37	0xbd03dd08	-0.032193214
38	0x3da67213	0.08127227
39	0x3e45fcf0	0.19334769
40	0xbffa53f7	-1.9556874
41	0x3f310f3f	0.6916389
42	0xbd46df00	-0.048552513
43	0x3d822735	0.063551344
44	0x3df7263c	0.120678395
45	0x3cb94e05	0.02262021
46	0x3cf036fd	0.029323095
47	0xbcae2feb	-0.021263083
48	0xbf181f93	-0.5942318
49	0xc0153830	-2.3315544
50	0xbd91ae7c	-0.071133584
51	0x3a59a9d4	0.00083031994
52	0xbf9a0d23	-1.2035259
53	0xbc89d885	-0.016826877
54	0x3de6bfe6	0.112670705
55	0xbfad99ef	-1.3562602
56	0xbdd3fea5	-0.10351304
57	0x3e362be9	0.17790188
58	0x3ec4061a	0.38285905
59	0x3f11d440	0.5696449
60	0x3c9c3c39	0.019071685
61	0xbf917051	-1.1362401
62	0x3ddb3494	0.10703388
63	0xbdfc636b	-0.1232365
64	0xbe44b45c	-0.19209427
65	0x3f041b19	0.5160385
66	0xbd0a0f10	-0.03370577
67	0x3f78bc7e	0.97162616
68	0xc081455e	-4.0397177
69	0xbd59f1d7	-0.053209152
70	0x3cb2fd6a	0.021849353
71	0xc018b636	-2.3861213
72	0x3c7313ec	0.014836293
73	0xbf39a809	-0.72522026
74	0x3f9918b6	1.1960666
75	0xbf59e782	-0.8511888
76	0x3c5b0f6a	0.013370374
77	0xc0097f64	-2.1484003
78	0xbdb10c01	-0.08644868
79	0x3c7c9fda	0.015418971
80	0x3d9a778c	0.07542333
81	0xbc50d680	-0.012746453
82	0xbe14e795	-0.14541467
83	0x3dd8b804	0.10581973
84	0xbd9d8d8a	-0.07693012
85	0x3d91882b	0.0710605
86	0x3be2a8e0	0.006917104
87	0xc01061e4	-2.2559748
88	0x3dca7df6	0.098873064
89	0xc09b64a0	-4.8560333
90	0xbdac4dff	-0.08413314
91	0x3ef5a446	0.47976893
92	0xbf8ff2c5	-1.1245962
93	0xbed0345e	-0.40664953
94	0x40048965	2.070886
95	0xc02dd54f	-2.7161443
96	0xc0745946	-3.8179488
97	0x3d73d182	0.059525974
98	0x3d930367	0.07178383
99	0xbfc84b16	-1.5647914
100	0x3e29a6a1	0.1656747
101	0x3e0c47be	0.13699242
102	0x3dd07f4b	0.10180529
103	0x3f81b25a	1.0132554
104	0xbd9ee097	-0.07757681
105	0xbd261c16	-0.04055413
106	0x3c41c108	0.011825807
107	0xbf714922	-0.94252217
108	0x3b1918b6	0.0023360676
109	0xbcbc387d	-0.022976154
110	0x3dca9ce7	0.09893208
111	0xbd67184b	-0.056419652
112	0x3d2b42e9	0.041811857
113	0x3e15f157	0.14642845
114	0x3d59494b	0.053048413
115	0xc055a099	-3.337927
116	0xbe681c2b	-0.22666995
117	0xbd58c16b	-0.052918833
118	0xbedac14f	-0.42725608
119	0xbfa7b2f9	-1.3101493
120	0xbf30a23a	-0.6899754
121	0x4006f116	2.1084647
122	0xbf4c50bd	-0.79810697
123	0xbb1ba72b	-0.0023750763
124	0xc07f04c6	-3.9846663
125	0x3d8f6e44	0.070034534
126	0x3e1fa1b4	0.15589029
127	0x3c8efa42	0.017453317
128	0x3df3b69f	0.119000666
129	0xbf1cf7dc	-0.61315703
130	0xbf66dcb8	-0.9018054
131	0x3c956f01	0.018241407
132	0xbd1cf9c0	-0.038324118
133	0xbd8c5baa	-0.06853421
134	0xbe804fbf	-0.2506084
135	0xbe2d2737	-0.1690949
136	0x3d19e18a	0.037568606
137	0xbfbacf34	-1.4594483
138	0xc0110730	-2.2660637
139	0xbe55db2d	-0.2088439
140	0xbcd7bd65	-0.026335428
141	0xbd8931c3	-0.066989444
142	0x3f2666cd	0.6500061
143	0xbe258807	-0.16165172
144	0xbf68f986	-0.9100574
145	0xbf036a5b	-0.5133416
146	0xbf79ad30	-0.9752989
147	0x3d5fba4d	0.05462103
148	0xbec907fa	-0.39263898
149	0xbee9c6e0	-0.45659542
150	0xbed6a57e	-0.41923136
151	0xbe100855	-0.14065678
152	0xbf0be15b	-0.5464074
153	0xc00edf53	-2.2323806
154	0x3cd7311a	0.02626853
155	0xbef57a32	-0.4794479
156	0xbd0f9a9b	-0.035059553
157	0x3f09dea7	0.53855366
158	0xbf26b286	-0.65116155
159	0xbefb2a56	-0.49055737
160	0xbdaa920d	-0.08328638
161	0xbd24ebac	-0.040263817
162	0x3e58e1da	0.21179906
163	0xbfc9e5f2	-1.5773299
164	0xbc8d57c2	-0.01725376
165	0x3f89e011	1.0771505
166	0xbea63bdd	-0.32467547
167	0xbb7929aa	-0.0038019218
168	0x3fe12bb4	1.7591462
169	0x3e32b63a	0.17452326
170	0x3cc169d9	0.023610042
171	0x3d613c88	0.054989368
172	0x3fef91d2	1.8716376
173	0x405dcf92	3.465794
174	0xbd5e6d31	-0.05430335
175	0xbe12dab3	-0.1434124
176	0xbebaaf63	-0.36461934
177	0x3f681d6b	0.9066989
178	0xbf8fe0d6	-1.124049
179	0x3f735a63	0.95059794
180	0xbd0a54c7	-0.033772256
181	0x3d69f0ab	0.057114284
182	0xbd95d4ea	-0.07316001
183	0xbc18b129	-0.009319582
184	0xbf2f6611	-0.68515116
185	0x3c28288e	0.010263575
186	0x3d353703	0.044241916
187	0x3c919741	0.017772319
188	0xbfb62e04	-1.4232793
189	0xbd3990a0	-0.04530394
190	0x3ff6b72a	1.9274647
191	0x3e297cc6	0.16551504
192	0x3ceea22c	0.029130064
193	0xbdae496b	-0.08510097
194	0x3d149309	0.036273036
195	0x400a1153	2.1573074
196	0xbf5e9f68	-0.86961985
197	0x3d8c5abc	0.06853244
198	0x3e8b838c	0.272488
199	0x3d86ae0c	0.065761656
200	0x3cafe661	0.021472158
201	0x3ee05d00	0.43820953
202	0xc054f881	-3.3276675
203	0xbf18a82d	-0.59631616
204	0x3f408188	0.7519765
205	0xbd56defc	-0.05245875
206	0x3eb236a7	0.3480732
207	0xbf746264	-0.9546263
208	0xbf19716e	-0.59938705
209	0x3e522998	0.2052368
210	0xbca135a8	-0.019678906
211	0x3ea18c1c	0.31552207
212	0x3c8655e0	0.01639837
213	0xbfd0a612	-1.6300681
214	0xbd01a377	-0.031650033
215	0x3fa9274a	1.3215115
216	0x3e7f489f	0.24930046
217	0xbf10e228	-0.5659509
218	0x3ca677cf	0.020320801
219	0xc040e5f5	-3.0140355
220	0xbdf7d239	-0.12100644
221	0xbbea1921	-0.007144109
222	0xbe0cfc43	-0.13768105
223	0xbca8c544	-0.020601876
224	0x3d4d43b6	0.050113402
225	0x3d58da5b	0.052942615
226	0x3e93e540	0.2888584
227	0xbd9c1c56	-0.07622592
228	0xbd98845f	-0.07447123
229	0xbd54c3a1	-0.05194438
230	0xc01eff84	-2.4843454
231	0x3f894e29	1.0726978
232	0xbf311867	-0.6917786
233	0xbef38186	-0.47559756
234	0xbef8ee52	-0.48619324
235	0x3fbbf96b	1.4685491
236	0x3f3f2b77	0.746757
237	0xbdb8ead6	-0.090291664
238	0x3db0584a	0.0861059
239	0xbdc7b148	-0.097506106
240	0xbdd63c18	-0.10460681
241	0xbe75925a	-0.2398161
242	0xc06bc326	-3.683786
243	0xbdf80098	-0.12109488
244	0x3c118451	0.008881644
245	0xbc97ac52	-0.018514786
246	0x3e5c1958	0.21494043
247	0xbd81403d	-0.063110806
248	0x3fa3067d	1.2736355
249	0x3f3df57d	0.7420271
250	0xbf5ba5c2	-0.857998
251	0xbea627e5	-0.32452312
252	0xbf69608b	-0.9116294
253	0xbe32c38b	-0.17457406
254	0x3db07f5b	0.08618041
255	0x3fd3a43f	1.6534499

out.bias f4 [2]
0	0x3d134a25	0.03595938
1	0xbd2099a5	-0.039209027

std_out.weight f4 [2, 256]
0	0xbdac3ef3	-0.08410444
1	0x3f358b07	0.70915264
2	0xbf060b1f	-0.5236072
3	0x3f1bbca6	0.6083473
4	0xbdf3909a	-0.11892815
5	0x3eda73c2	0.4266644
6	0x3e665fac	0.22497433
7	0xbead0f66	-0.3380081
8	0xbd19bf2e	-0.03753584
9	0x3ef05ab6	0.46944207
10	0x3e23e4ab	0.16005199
11	0xbf2ef8bc	-0.6834829
12	0x3deaf64f	0.11472761
13	0xbf75e0b1	-0.96045977
14	0xbf422470	-0.7583685
15	0xbe30c19f	-0.1726136
16	0x3f0f570a	0.55992186
17	0xbe3b30a9	-0.18280281
18	0x3f2ef657	0.68344635
19	0x3efef51d	0.49796382
20	0xbda5015b	-0.08056899
21	0x3dab161b	0.08353826
22	0x3e7f4ce2	0.24931672
23	0xbe3a050b	-0.18165986
24	0xbc4c21dd	-0.0124592455
25	0x3d7f5174	0.06233354
26	0x3e6debea	0.23234525
27	0x3e4b3b37	0.19846807
28	0x3e8b078b	0.27154192
29	0xbe11e1cb	-0.1424629
30	0xbdac3bc2	-0.084098354
31	0xbd217009	-0.039413486
32	0xbe3ae3b5	-0.18250926
33	0xbe032855	-0.12808354
34	0x3f233080	0.6374588
35	0xbda9d03a	-0.08291669
36	0x3dcd017c	0.10010049
37	0xbce281a8	-0.027649716
38	0xbdcb21f4	-0.099185854
39	0xbf0e165f	-0.55502886
40	0x3dbcb402	0.09214021
41	0xbe6e3491	-0.2326224
42	0x3d12ff82	0.035888202
43	0xbd13103c	-0.035904154
44	0xbd3bd3ae	-0.04585617
45	0x3c871e63	0.016493982
46	0xbc0ddcab	-0.008658568
47	0x3d375d0b	0.044766467
48	0xbd89abaa	-0.067221954
49	0xbecbe08b	-0.3981975
50	0x3da346c5	0.079724826
51	0x3d497f26	0.049193524
52	0x3e5a7dca	0.21337047
53	0xbb0019bd	-0.0019546591
54	0x3ca14b41	0.019689204
55	0x3f542a84	0.82877374
56	0x3ddef3fc	0.1088638
57	0xbed686c4	-0.41899693
58	0x3de42733	0.11140289
59	0xbc3b946a	-0.011448959
60	0x3e21949b	0.15779345
61	0x3f2354d3	0.63801306
62	0x3d47c8d7	0.04877552
63	0x3e955f05	0.29174057
64	0x3d922d10	0.07137501
65	0x3e8b770c	0.27239263
66	0x3e12ee74	0.14348775
67	0x3ed22ed2	0.41051346
68	0x3f27bab8	0.65519285
69	0x3cd43de8	0.025908425
70	0x3dce186f	0.10063254
71	0xbd31a10c	-0.043366477
72	0xbb4aadba	-0.0030926303
73	0x3f1d9b20	0.61564827
74	0xbee59da0	-0.4484682
75	0x3eb846a5	0.35991398
76	0xbcf4ca91	-0.029881747
77	0xbf07fa44	-0.5311625
78	0x3cd38387	0.025819553
79	0x3d1c0b34	0.03809662
80	0xbe31c092	-0.17358616
81	0x3c053119	0.008129382
82	0x3e6d0b9d	0.23148961
83	0x3e035dd2	0.12828758
84	0x3d49c50e	0.04926019
85	0x3d9fbf99	0.07800216
86	0x3ea73c02	0.3266297
87	0x3e060c52	0.13090637
88	0xbbb3d815	-0.0054884055
89	0x3e154601	0.14577486
90	0x3cd4895a	0.0259444
91	0x3f0927fa	0.53576624
92	0xbf35a3e9	-0.7095323
93	0xbf043c9e	-0.51654994
94	0x3f6a8682	0.9161149
95	0x3e4d453a	0.20045939
96	0xbdc2aaaa	-0.09505208
97	0x3e49534f	0.19660686
98	0x3e88e07b	0.26733765
99	0x3f24e06f	0.6440496
100	0x3dd9d89e	0.106370196
101	0x3de7d6fd	0.11320303
102	0xbe0994fe	-0.13435742
103	0xbe2516d2	-0.16121987
104	0x3e02f7fb	0.1278991
105	0x3dd38435	0.10327951
106	0xbd546685	-0.051855583
107	0x4007575c	2.114707
108	0xbe25c4c3	-0.1618834
109	0xbde692ea	-0.112584904
110	0x3df76c95	0.12081257
111	0xbd994f46	-0.07485823
112	0xbcb00505	-0.021486768
113	0xbd9583c6	-0.073005244
114	0xbc2dd1a1	-0.010609061
115	0xbe106912	-0.14102581
116	0x3ce24e73	0.027625298
117	0xbdfeda07	-0.12443929
118	0x3e8f54c1	0.2799435
119	0x3f36dbd8	0.71429205
120	0x3c5b8f37	0.013400844
121	0xbe845462	-0.2584563
122	0x3f7a6799	0.9781433
123	0x3c84c1e6	0.01620574
124	0x3f169a50	0.5882921
125	0x3d515d14	0.051114157
126	0xbe8cb4fb	-0.27481827
127	0x3da4f7d1	0.0805508
128	0x3deb4c0b	0.114891134
129	0x3fa12bd7	1.2591504
130	0xbda2a85b	-0.079422675
131	0x3d9f1f62	0.07769658
132	0x3da475f4	0.0803031
133	0x3d235770	0.03987831
134	0xbf606672	-0.8765632
135	0xbefcbae2	-0.4936133
136	0x3ed9c76d	0.42534962
137	0xbdda83db	-0.10669681
138	0xbceb0007	-0.028686536
139	0xbce4c019	-0.02792363
140	0xbdfb125b	-0.122593604
141	0x3c2b77b1	0.010465548
142	0xbee311dd	-0.44349566
143	0x3d25849c	0.04040967
144	0x3e0da0db	0.13830893
145	0x3ecc8291	0.39943364
146	0x3f0b6340	0.5444832
147	0x3c31baca	0.010847757
148	0x3e94f1d4	0.2909075
149	0x3dee9eee	0.11651407
150	0x3db4ea45	0.08833746
151	0x3f0945ff	0.5362243
152	0xbe8ae518	-0.2712791
153	0xbf504f14	-0.81370664
154	0x3f37f1a8	0.71853113
155	0x3ec079a1	0.37592795
156	0xbebeea05	-0.37287918
157	0x3ee03231	0.43788293
158	0x3e4f4570	0.20241332
159	0xbe61a4de	-0.22035548
160	0xbd8c9fcd	-0.06866417
161	0x3e4a5098	0.19757307
162	0xbe8b5d2c	-0.27219522
163	0x3f6201ec	0.8828418
164	0x3de3fd8e	0.11132346
165	0x3f867f9d	1.0507694
166	0xbfada769	-1.3566715
167	0xbd8afcb6	-0.06786482
168	0xbf36abfd	-0.71356183
169	0x3eb57dfb	0.35447678
170	0xbe413306	-0.1886712
171	0xbda6cce4	-0.081445485
172	0xbe8dd8ff	-0.27704617
173	0x3d1fb39b	0.038989644
174	0xbd570309	-0.05249313
175	0x3e49aa4e	0.19693872
176	0xbe1989e4	-0.14994007
177	0x3e94e17e	0.29078287
178	0x3f4b8dab	0.79513043
179	0xbfacf144	-1.3511128
180	0x3dc6e9ad	0.09712539
181	0x3cfcd62f	0.03086385
182	0xbce20f57	-0.027595205
183	0x38af69a1	8.364325e-05
184	0x3d6013b3	0.054706287
185	0xbd1598ab	-0.03652255
186	0x3e35e3f4	0.17762738
187	0xbcd90b07	-0.026494516
188	0xbd760a7b	-0.06006859
189	0x3e227305	0.15864189
190	0x3d7f5e52	0.06234581
191	0xbf0c3528	-0.5476861
192	0xbc0ece17	-0.008716128
193	0xbd091ae2	-0.033472903
194	0x3e1c26e5	0.15249212
195	0x3f14edb9	0.58175236
196	0x3ef6f811	0.48236135
197	0x3e1082bd	0.14112373
198	0x3dfbed8b	0.12301167
199	0x3c3ff7d8	0.011716805
200	0xbe409065	-0.18805082
201	0xbdfb46df	-0.12269377
202	0x3e636f2f	0.22210382
203	0x3ed29569	0.41129616
204	0xbecda602	-0.40165716
205	0xbd0193bb	-0.031635027
206	0xbcb65c8b	-0.022260925
207	0xbfb66eae	-1.4252527
208	0xbcac197a	-0.021008242
209	0x3e9d94d4	0.3077761
210	0x3e53dd0b	0.2068979
211	0x3ed71e3a	0.4201525
212	0x3d8e40b9	0.069459386
213	0x3f97fd75	1.1874224
214	0xbcf84bd7	-0.0303096
215	0xbd13b459	-0.036060665
216	0x3e0ffa28	0.14060271
217	0xbca38810	-0.01996234
218	0xbd9400a0	-0.07226682
219	0x3e2097d0	0.15682912
220	0x3d82e708	0.06391722
221	0xbe5cee6b	-0.21575324
222	0x3bf92563	0.007603334
223	0x3c2a3013	0.010387438
224	0x3cbfefc2	0.023429755
225	0xbe023204	-0.12714392
226	0xbf367a79	-0.7128063
227	0xbccf9f98	-0.025344655
228	0xbd384d43	-0.044995558
229	0xbdb11a82	-0.08647634
230	0x3eab38c2	0.3344174
231	0xbf86fe98	-1.0546446
232	0xbf1eadc1	-0.6198388
233	0x3da0abbd	0.078452565
234	0xbe0906d7	-0.13381515
235	0x3ede6252	0.43434387
236	0x3e24879d	0.16067357
237	0xbcae14d0	-0.021250159
238	0xbd467ce9	-0.048458967
239	0xbe1caeb7	-0.15301023
240	0xbb701c32	-0.00366379
241	0x3da01555	0.07816569
242	0x3f2cecec	0.67549014
243	0x3e04bd38	0.12962806
244	0x3ec11742	0.37713057
245	0x3dbe163c	0.092815846
246	0xbe6eaa40	-0.23307133
247	0x3d802dc3	0.06258728
248	0xbdb69825	-0.08915738
249	0xbeeba9d1	-0.46027997
250	0x3bd7312e	0.006567142
251	0x3dada7e1	0.08479286
252	0x3e3614b9	0.17781343
253	0x3e73bfe5	0.2380367
254	0xbe678211	-0.2260821
255	0x3ef42c09	0.47689846

std_out.bias f4 [2]
0	0xbf327710	-0.69712925
1	0xbf3647da	-0.71203387

exp_avg f4 [256, 7]
0	0x00000000	0.0
1	0x00000000	0.0
2	0x00000000	0.0
3	0x00000000	0.0
4	0x00000000	0.0
5	0x00000000	0.0
6	0x00000000	0.0
7	0x00000000	0.0
8	0x00000000	0.0
9	0x00000000	0.0
10	0x00000000	0.0
11	0x00000000	0.0
12	0x00000000	0.0
13	0x00000000	0.0
14	0x00000004	6e-45
15	0x00000004	6e-45
16	0x00000004	6e-45
17	0x00000004	6e-45
18	0x00000004	6e-45
19	0x00000004	6e-45
20	0x00000000	0.0
21	0x00000000	0.0
22	0x00000000	0.0
23	0x00000000	0.0
24	0x00000000	0.0
25	0x00000000	0.0
26	0x00000000	0.0
27	0x00000000	0.0
28	0xbc010e2e	-0.007876916
29	0xbd4b69ce	-0.04966145
30	0xbd8bef7c	-0.068327874
31	0xbd3a9278	-0.04554984
32	0xbd484de8	-0.048902422
33	0xbca05cbc	-0.01957547
34	0x00000004	6e-45
35	0x3d94c6b8	0.07264465
36	0x3d967f36	0.07348482
37	0x3d8fc339	0.07019658
38	0x3e46cf7e	0.1941509
39	0x3db57b7c	0.088614434
40	0x3ce0bbd4	0.027433313
41	0x3e5833aa	0.21113458
42	0x00000004	6e-45
43	0x00000004	6e-45
44	0x00000004	6e-45
45	0x00000004	6e-45
46	0x00000004	6e-45
47	0x00000004	6e-45
48	0x80000004	-6e-45
49	0x00000004	6e-45
50	0x00000004	6e-45
51	0x00000004	6e-45
52	0x00000004	6e-45
53	0x00000004	6e-45
54	0x00000004	6e-45
55	0x00000004	6e-45
56	0x00000000	0.0
57	0x00000000	0.0
58	0x00000000	0.0
59	0x00000000	0.0
60	0x00000000	0.0
61	0x00000000	0.0
62	0x00000000	0.0
63	0x00000004	6e-45
64	0x00000004	6e-45
65	0x00000004	6e-45
66	0x00000004	6e-45
67	0x00000004	6e-45
68	0x00000004	6e-45
69	0x00000004	6e-45
70	0x00000004	6e-45
71	0x00000004	6e-45
72	0x00000004	6e-45
73	0x00000004	6e-45
74	0x00000004	6e-45
75	0x00000004	6e-45
76	0x00000000	0.0
77	0x00000000	0.0
78	0x00000000	0.0
79	0x00000000	0.0
80	0x00000000	0.0
81	0x00000000	0.0
82	0x00000000	0.0
83	0x00000000	0.0
84	0x00000004	6e-45
85	0x00000004	6e-45
86	0x00000004	6e-45
87	0x00000004	6e-45
88	0x00000004	6e-45
89	0x00000004	6e-45
90	0x80000004	-6e-45
91	0x00000000	0.0
92	0x00000000	0.0
93	0x00000000	0.0
94	0x00000000	0.0
95	0x00000000	0.0
96	0x00000000	0.0
97	0x00000000	0.0
98	0x00000004	6e-45
99	0x00000004	6e-45
100	0x00000004	6e-45
101	0x00000004	6e-45
102	0x00000004	6e-45
103	0x00000004	6e-45
104	0x00000004	6e-45
105	0x00000004	6e-45
106	0x00000004	6e-45
107	0x00000004	6e-45
108	0x00000004	6e-45
109	0x00000004	6e-45
110	0x00000004	6e-45
111	0x80000004	-6e-45
112	0xbd8e769e	-0.06956218
113	0xbc8a0610	-0.016848594
114	0xbd8ea43a	-0.069649175
115	0xbd5b0850	-0.053474724
116	0xbdb857c1	-0.09001113
117	0xbce121ed	-0.027481997
118	0x2e47d84e	4.543948e-11
119	0x00000000	0.0
120	0x00000000	0.0
121	0x00000000	0.0
122	0x00000000	0.0
123	0x00000000	0.0
124	0x00000000	0.0
125	0x00000000	0.0
126	0x00000000	0.0
127	0x00000000	0.0
128	0x00000000	0.0
129	0x00000000	0.0
130	0x00000000	0.0
131	0x00000000	0.0
132	0x00000000	0.0
133	0x00000000	0.0
134	0x00000000	0.0
135	0x00000000	0.0
136	0x00000000	0.0
137	0x00000000	0.0
138	0x00000000	0.0
139	0x00000000	0.0
140	0x00000004	6e-45
141	0x00000004	6e-45
142	0x00000004	6e-45
143	0x00000004	6e-45
144	0x00000004	6e-45
145	0x00000004	6e-45
146	0x00000004	6e-45
147	0x00000004	6e-45
148	0x00000004	6e-45
149	0x00000004	6e-45
150	0x00000004	6e-45
151	0x00000004	6e-45
152	0x00000004	6e-45
153	0x80000004	-6e-45
154	0x00000004	6e-45
155	0x00000004	6e-45
156	0x00000004	6e-45
157	0x00000004	6e-45
158	0x00000004	6e-45
159	0x00000004	6e-45
160	0x00000004	6e-45
161	0x00000000	0.0
162	0x00000000	0.0
163	0x00000000	0.0
164	0x00000000	0.0
165	0x00000000	0.0
166	0x00000000	0.0
167	0x00000000	0.0
168	0x00000000	0.0
169	0x00000000	0.0
170	0x00000000	0.0
171	0x00000000	0.0
172	0x00000000	0.0
173	0x00000000	0.0
174	0x00000000	0.0
175	0x00000004	6e-45
176	0x00000004	6e-45
177	0x00000004	6e-45
178	0x00000004	6e-45
179	0x00000004	6e-45
180	0x00000004	6e-45
181	0x00000004	6e-45
182	0x00000000	0.0
183	0x00000000	0.0
184	0x00000000	0.0
185	0x00000000	0.0
186	0x00000000	0.0
187	0x00000000	0.0
188	0x00000000	0.0
189	0x00000004	6e-45
190	0x00000004	6e-45
191	0x00000004	6e-45
192	0x00000004	6e-45
193	0x00000004	6e-45
194	0x00000004	6e-45
195	0x00000004	6e-45
196	0x00000004	6e-45
197	0x00000004	6e-45
198	0x00000004	6e-45
199	0x00000004	6e-45
200	0x00000004	6e-45
201	0x00000004	6e-45
202	0x00000004	6e-45
203	0x00000004	6e-45
204	0x00000004	6e-45
205	0x00000004	6e-45
206	0x00000004	6e-45
207	0x00000004	6e-45
208	0x00000004	6e-45
209	0x00000004	6e-45
210	0x00000000	0.0
211	0x00000000	0.0
212	0x00000000	0.0
213	0x00000000	0.0
214	0x00000000	0.0
215	0x00000000	0.0
216	0x00000000	0.0
217	0x00000000	0.0
218	0x00000000	0.0
219	0x00000000	0.0
220	0x00000000	0.0
221	0x00000000	0.0
222	0x00000000	0.0
223	0x00000000	0.0
224	0x00000004	6e-45
225	0x00000004	6e-45
226	0x00000004	6e-45
227	0x00000004	6e-45
228	0x00000004	6e-45
229	0x00000004	6e-45
230	0x00000004	6e-45
231	0x00000004	6e-45
232	0x00000004	6e-45
233	0x00000004	6e-45
234	0x00000004	6e-45
235	0x00000004	6e-45
236	0x00000004	6e-45
237	0x80000004	-6e-45
238	0x00000000	0.0
239	0x00000000	0.0
240	0x00000000	0.0
241	0x00000000	0.0
242	0x00000000	0.0
243	0x00000000	0.0
244	0x00000000	0.0
245	0x3db5f7b4	0.08885136
246	0x3dd1f1ae	0.10251175
247	0x3ddf990a	0.10917862
248	0x3e397d4c	0.18114203
249	0x3dfa757f	0.12229442
250	0x3d42e153	0.047578167
251	0x3e8b066c	0.27153337
252	0x00000004	6e-45
253	0x00000004	6e-45
254	0x00000004	6e-45
255	0x00000004	6e-45
